ecogrow_disease_detection/artifacts/detectors/global.pt (torch, 867921 bytes, 19 tensors)

text_features f4 [18, 512]
000000 34 bf f7 bb 69 b2 46 3d f4 10 2d bd ee 22 8f 3d
       -0.007560635 0.04850999 -0.042252496 0.06989084
000010 f3 be 81 bd 80 db 1c bd 40 12 0f bd 7c 7e 23 3b
       -0.06335249 -0.03829527 -0.034929514 0.0024947217
000020 2c f5 45 bc dc 55 65 3d 10 a3 75 bb cd 90 e0 3b
       -0.012082379 0.055990085 -0.0037481226 0.006853199
000030 74 01 31 3d 9c c2 11 bd fb f1 91 3b 78 09 1d bd
       0.043214276 -0.035585985 0.004453895 -0.03833911
000040 f5 14 80 bb d4 c7 66 bb e7 5a 47 bc f6 be 87 3a
       -0.0039087483 -0.0035214322 -0.012167669 0.0010356593
000050 b7 12 30 bc a3 39 0a 3d b4 f1 e3 bc 3a 3a 1d 3c
       -0.0107466495 0.033746373 -0.027825214 0.009596402
000060 52 09 7d 3d 09 a8 1a bc 24 c7 af 3b 5b 65 38 bc
       0.061776467 -0.009439477 0.0053643156 -0.011254634
000070 bc 4d c2 3c c3 17 c8 bc d0 56 5e 3d 8a a9 b0 3b
       0.023718707 -0.024425393 0.05428201 0.0053913044
000080 16 42 90 bc cc 8d 58 3c 3f 17 bd bc 4a 6c 01 3c
       -0.017609637 0.013217401 -0.023082374 0.007899353
000090 c3 d5 17 bd f8 e1 de bc 15 06 aa bc 67 03 da bb
       -0.037069093 -0.02720736 -0.020754853 -0.0066532376
0000a0 fd aa df bd 80 48 0e 3d ea 09 2c bd db 02 4c bd
       -0.10921285 0.03473711 -0.042001642 -0.04980741
0000b0 bf 3a 04 3d 7c 62 45 bd 81 51 c5 ba eb b3 5e bd
       0.032282587 -0.048189625 -0.0015054197 -0.054370802
0000c0 59 3d b9 3d 53 91 f6 bb a4 0e c6 bb da be ed bc
       0.09044904 -0.007524648 -0.006044226 -0.02902167
0000d0 d2 47 60 bb 25 c8 5c bb f0 14 28 3d cd 69 aa bd
       -0.0034222496 -0.0033688631 0.041035593 -0.08320961
0000e0 d1 4a 99 3b bb ea b3 3c 53 19 57 bd 87 1d 11 bd
       0.0046781083 0.021962514 -0.052514385 -0.03542855
0000f0 42 59 f6 39 0f 73 4e bd 61 02 3c bd b9 67 25 3c
       0.0004698728 -0.050402697 -0.045900706 0.01009553
000100 11 ba 90 3d 75 11 e8 3b 17 d9 c4 3c 8e e1 27 bc
       0.07066739 0.007082159 0.024029298 -0.0102466475
000110 dd 34 8f 3d ea 8b 6a 3d d6 86 a4 bc e7 a9 a4 3a
       0.06992505 0.05726234 -0.020083826 0.0012562842
000120 b7 eb aa bc 78 55 05 bd 25 87 58 bd dd 0a 32 bd
       -0.02086435 -0.032552212 -0.05286326 -0.04346739
000130 a3 51 cb bd 52 a8 86 bd 42 9c 7b 3c 15 a2 0f 3d
       -0.0992768 -0.06575073 0.015357079 0.035066683
000140 5a 44 4b bc f5 46 b8 3b 8c cb 49 3c 67 c0 a7 bd
       -0.012406433 0.005623693 0.012316596 -0.08190995
000150 f5 d6 ca bc 39 8f 0f 3d 93 86 36 bd e9 1f 4e bd
       -0.024760703 0.035048697 -0.044561934 -0.0503234
000160 d1 f8 04 bd a7 6c 01 3d c5 27 b0 bc 93 60 8d bc
       -0.032463852 0.03159776 -0.021503339 -0.017257964
000170 72 33 53 3d 55 10 bf bc d7 5a 49 bd 5e e6 87 bd
       0.051562734 -0.023323217 -0.049158897 -0.06635736
000180 ce 7a 88 3d 46 5f 1d bd 1f 75 b2 3d 55 78 e4 bc
       0.06664048 -0.038420938 0.08713745 -0.02788941
000190 8c 61 4a 3c 86 3b aa bc 2c 68 c5 bc 5b 69 02 3d
       0.012352359 -0.020780336 -0.024097525 0.031838756
0001a0 86 95 a5 3b 2f 26 6f bc ce eb 0d 3e 59 af a4 bc
       0.005053225 -0.014596506 0.13859484 -0.020103144
0001b0 46 77 1e bd 03 dd b2 3b 7e 58 5d bd 6b 36 14 bb
       -0.038687967 0.0054584756 -0.05403947 -0.0022615443
0001c0 1e 9a 54 3d 21 76 8a bc 14 48 d8 3d 87 c0 4d 3d
       0.05190479 -0.016902031 0.10560623 0.050232437
0001d0 bc 31 25 bd df 63 c5 3b 4f 8e ad bc 43 8a ef bb
       -0.040330634 0.0060238685 -0.021186022 -0.0073101833
0001e0 e2 a2 8e bc cd 76 4b bc b3 b7 3a 3d b7 b3 53 3d
       -0.017411653 -0.012418461 0.045585345 0.05168506
0001f0 24 d5 5d bd a2 91 2b 3d ad 6a c1 bc 76 4b c2 3c
       -0.054158345 0.041886933 -0.023610437 0.023717623
000200 39 ad db 3c 58 45 98 bd f8 87 d7 3c e4 49 db bc
       0.026815997 -0.07435101 0.026309952 -0.026768632
000210 48 a8 a9 bb 3d 2e f9 bb a6 58 7a bc 81 dd a7 3c
       -0.0051775314 -0.007604389 -0.0152799245 0.020491363
000220 88 5d 03 3d bc c3 01 bd 47 10 99 3c 5c 54 2c bd
       0.03207162 -0.031680807 0.01868452 -0.04207264
000230 4d 27 11 bd f5 2b 94 3c 38 93 e2 3b 3d c8 91 3d
       -0.03543787 0.018087367 0.0069145225 0.071182705
000240 33 2a 84 bc 96 9e 92 bb b8 c0 11 bc f9 33 18 bd
       -0.016133403 -0.0044744713 -0.008896045 -0.03715894
000250 dd 2a d2 3d 4b f8 0e 3d 11 31 a4 bc 71 99 9e bd
       0.10262082 0.03490476 -0.020042928 -0.077441104
000260 38 39 a1 bb b2 fe ab 3d e1 db 4f bd 73 6b 85 bd
       -0.004920151 0.08398189 -0.050746802 -0.06514635
000270 23 bf a4 bc cd 8e 93 3d 2e 85 2b bd 02 58 73 bd
       -0.020110672 0.072049715 -0.041875057 -0.059410103
000280 9b fe 33 bc 26 24 2f 3d 0b 5c bc 3a 71 17 51 bd
       -0.010985996 0.042759083 0.0014370693 -0.051047746
000290 66 b7 4d 3d 74 87 6f 3b 82 6d 05 3c 2e 12 a2 bd
       0.05022373 0.0036549242 0.0081437845 -0.07913624
0002a0 51 18 ae 3c f3 ed ae 3d 2d 48 09 3d 05 23 3e 3c
       0.02125183 0.08541479 0.033516098 0.011605029
0002b0 c3 0b 10 bd 75 00 a0 bd 64 ea 2d bd fe 9a 76 3d
       -0.035167467 -0.07812587 -0.04245986 0.060206406
0002c0 09 be 5b bd f9 40 04 3d c5 54 47 3c d2 92 12 bd
       -0.05364803 0.032288525 0.012166207 -0.03578455
0002d0 be fe 11 bd e0 0e 45 bd 4c 37 34 bd d3 de ba 3b
       -0.03564333 -0.04810989 -0.043998048 0.0057028322
0002e0 1b 8a 86 3d 5b cf 93 3c d8 c7 c4 bc 08 e8 ba bd
       0.0656931 0.01804321 -0.024021074 -0.09126288
0002f0 39 9e 40 bd 29 9d 0a 3d fe 08 ae bc 4f 0e 01 3b
       -0.047025893 0.033841286 -0.021244522 0.0019692366
000300 a9 d3 81 3c 3f b3 cf bc 16 98 69 3c 17 9f 03 3c
       0.015847998 -0.025354026 0.0142574515 0.008033535
000310 01 39 fa 3d 78 f8 b7 bd f5 eb 5c 3d b5 bd 45 bd
       0.12217904 -0.089829385 0.053935964 -0.04827662
000320 3d 8d ac bc 60 2c 0a 3d 32 e1 cc 3c 11 ba 0e bd
       -0.021063441 0.033733726 0.025009725 -0.034845416
000330 6d d8 8b bc 97 5f 34 3d 2f 8a 93 3c 9b ea 66 3d
       -0.017070973 0.044036474 0.018010227 0.05637608
000340 f5 29 1b bc 9a 46 77 bd 50 8b 28 bd 49 85 d9 3c
       -0.009470453 -0.060370065 -0.041148484 0.026552813
000350 96 59 3c bd b3 08 85 bd 25 0d 84 3b 07 5c 86 3c
       -0.045983873 -0.064958 0.0040298873 0.016401304
000360 fd 4d 70 bd a9 95 26 bd 97 2f 0b 3d 3b db e8 bc
       -0.058668125 -0.04067007 0.033980932 -0.02842485
000370 5b 67 1c 3b ef d6 cc bc fa c3 2d 3d a1 bf 23 bd
       0.0023865316 -0.025004832 0.042423226 -0.039977673
000380 a9 31 81 bb a3 b7 38 3c e5 6a 4c bd 3e 65 54 bc
       -0.0039426875 0.011274251 -0.04990663 -0.012963591
000390 13 c4 07 3d ff fb 45 bd 82 aa 84 bd 4d 89 df 3c
       0.033145975 -0.048336025 -0.06477834 0.02728715
0003a0 6f 7a 87 bc 80 a6 d1 3c 8a f8 6e bd 2f 44 af bc
       -0.016537873 0.025592089 -0.058342494 -0.021394817
0003b0 8c 2e 8e 3d 67 7c f1 bc 8b 44 16 bc f8 7e 22 3d
       0.06942472 -0.029478265 -0.009171615 0.039671868
0003c0 09 55 86 3d 07 a7 d4 3c a6 57 1f 3d ed bc 3f 3d
       0.06559188 0.025958551 0.038901947 0.046811033
0003d0 47 29 31 3d a7 fd e1 bb db a3 d7 bc 1e 1d db 3c
       0.043252256 -0.006896693 -0.02632325 0.026747283
0003e0 4d 39 ea 3d b6 2e 41 3d a3 3e cc 3a 21 53 17 bd
       0.114367105 0.047163688 0.0015582632 -0.036944512
0003f0 44 31 8c 3d fa 13 49 3d b7 d2 c5 bd 5f 30 35 3d
       0.06845334 0.049091317 -0.09659331 0.044235583

1.weight f4 [18, 512]
000000 91 8f 97 3b ee a9 13 3b 13 b5 b1 bc cf 33 30 bd
       0.0046252687 0.0022531706 -0.021692788 -0.04301816
000010 59 15 67 bc 6e a7 52 3c 5c 7c f9 bc 66 44 0a bd
       -0.014104211 0.012857301 -0.030454807 -0.033756636
000020 42 c9 e6 bc a9 ed fb 3b ed fc 1d 3d 7a e2 9b bc
       -0.02817214 0.0076882434 0.038571287 -0.01902889
000030 c6 fe d8 3c d1 bf 2e 3d c7 fa 00 3d da e2 2b 3d
       0.026488673 0.0426634 0.03148916 0.04196439
000040 41 86 2d 3d e1 6e 15 3d 3a 34 a4 bc e7 67 2f 3d
       0.042364363 0.036482695 -0.020044435 0.0428237
000050 96 e3 3c bb 7a 2f 29 bd fb 3d 2c bd ca be 86 3a
       -0.0028822175 -0.041305043 -0.042051297 0.0010280248
000060 98 09 8c bc 3d 2e 2a bd ed cd 49 3a 88 30 14 bd
       -0.017094418 -0.041548003 0.0007698227 -0.036179096
000070 35 3d 85 3c cf a2 98 bb 6d e7 ac bc 68 5b 1a 3d
       0.016264537 -0.00465808 -0.021106446 0.037684828
000080 15 a3 f1 3c 2a 55 e5 3c 21 9c 37 bc e6 8a ad bb
       0.029496709 0.027994711 -0.011206658 -0.005296099
000090 79 fa ce bb f4 c1 ba bc f2 5c 49 3c 27 c1 22 bd
       -0.0063164798 -0.022797562 0.012290226 -0.039734986
0000a0 20 3d 0f 3d 81 2a 80 3b b7 58 12 bd 64 ed 15 3d
       0.034970403 0.003911317 -0.035729136 0.036603346
0000b0 96 40 e0 3c d5 74 12 bc 40 12 f0 3c 7e bf b3 bc
       0.027374547 -0.008938988 0.029305577 -0.021941897
0000c0 3c a8 e8 3c 6f db 24 3d eb a2 fd bb be 70 6b 3c
       0.028400533 0.04024833 -0.0077403686 0.014370142
0000d0 2c f3 1e bd 64 fa 20 3d f2 bd df bc 84 22 09 bd
       -0.038806126 0.03930129 -0.027312253 -0.033480182
0000e0 e5 cd 08 bd a1 4e 06 3d 7c c7 bf bb 0f 4d 0d bd
       -0.03339948 0.03278983 -0.005852638 -0.034497317
0000f0 df ef 0f 3d fd 21 34 bc d2 82 25 bd 38 70 0b bd
       0.03514087 -0.010994432 -0.040407963 -0.034042567
000100 fe cf 6d 3c 0d 2f 0c bd 6d c6 b0 3c 75 b9 4b 3c
       0.014514921 -0.03422456 0.021578992 0.012434353
000110 97 4a 7e bc 04 40 db 3c 1b 75 bf 3a 6a 87 c5 3b
       -0.015520713 0.026763923 0.0014607044 0.0060281055
000120 28 b6 18 3d 0c 54 76 3c 94 c7 02 3d dd 8d 0b 3c
       0.037283093 0.015034687 0.031928614 0.00851771
000130 c2 dd b2 bb 49 b7 26 3d 36 e5 e6 bc e7 e7 32 3c
       -0.0054585645 0.040702138 -0.028185468 0.010919548
000140 8b db fd bc 72 34 19 bd 7d 66 67 bb cd 75 17 3d
       -0.030988475 -0.03740353 -0.003530889 0.036977578
000150 6c 09 32 bd 31 8a be 3c ff e8 45 3b 3c 22 51 bb
       -0.043466017 0.023259254 0.003019869 -0.0031911274
000160 25 79 a7 3c fe 83 f3 3b 06 6d 26 3d a5 81 63 bc
       0.020443508 0.007431506 0.040631317 -0.01388589
000170 7d 8a 34 3c 49 41 91 bc f9 74 cc 3c 25 eb 55 bc
       0.011019346 -0.017731326 0.02495812 -0.013056551
000180 b0 c8 30 bd 4f cf a7 3c 88 5a 30 bd cd aa 21 3d
       -0.04316014 0.020484595 -0.043055087 0.03946953
000190 63 cc ee bb 4f 11 8c 3c c3 93 87 3c 96 ba 5f 3b
       -0.0072875484 0.017098097 0.01654995 0.0034138313
0001a0 10 a4 32 bd 95 f6 0c bd 01 fb d6 3a 4f 0d cd ba
       -0.043613493 -0.034414846 0.0016401709 -0.0015644225
0001b0 68 23 e4 bc 7f 1f b1 bc 7d 12 cb b8 6f 72 58 bc
       -0.027848914 -0.021621464 -9.683238e-05 -0.013210877
0001c0 fd 16 b8 3c 87 78 cc 3c ce ab 0f bc 13 22 0b 3c
       0.0224719 0.024959816 -0.008768989 0.008492011
0001d0 7c 2d dd 3b 17 e1 8d bc cc 76 95 bc a8 52 08 3c
       0.006749807 -0.017319245 -0.018245123 0.008320488
0001e0 a7 04 a2 3c 2d c8 b1 bc 1c d9 38 bc 03 03 bc 3c
       0.019777609 -0.021701897 -0.011282232 0.022950655
0001f0 d2 a4 c8 bc fe 43 9a bc 5d 87 10 3c bc 94 0e 3d
       -0.024492655 -0.01883125 0.008821336 0.034809813
000200 c7 62 ac 3c a2 3d 0f 3d db 34 2f bd 72 38 be bc
       0.021043194 0.034970887 -0.042775016 -0.023220275
000210 fc 4d e7 bc 1d 89 13 bc 0b 20 09 3d e6 d9 09 3d
       -0.028235428 -0.009004858 0.033477824 0.03365507
000220 9a 47 85 3c 4c 6b b2 bc ce 49 e5 3c d7 09 de bb
       0.016269494 -0.021779679 0.027989294 -0.0067760753
000230 df c2 29 bd f1 6a 04 bd f0 1f 12 bd d8 33 49 bc
       -0.04144561 -0.03232855 -0.03567499 -0.012280427
000240 54 9b 83 3c 41 46 d1 3b ec 54 02 3b 36 21 91 3c
       0.016065277 0.0063865487 0.0019887043 0.017716032
000250 ac 45 20 3c 3e f6 82 bc 3f 44 6a bc 65 63 0e bd
       0.009782236 -0.015986558 -0.014298498 -0.03476276
000260 b3 d9 f4 bc af 17 21 bd 86 c4 54 3c 76 8f 77 bc
       -0.029888963 -0.039329227 0.012986308 -0.015109887
000270 c5 0e 03 bd 39 02 7e 3c 86 9b 2c bc 41 c3 1d 3d
       -0.031996507 0.01550346 -0.010535127 0.038516287
000280 62 3b c2 3c 5d aa 14 bd 64 e1 0d bd e8 ec d6 3b
       0.023709957 -0.036295284 -0.034638777 0.006559003
000290 c4 7f 31 3d 43 9d b1 3c aa 1c 07 3d 5c 9c bb bc
       0.043334737 0.021681434 0.03298632 -0.022901706
0002a0 54 68 19 3d 97 44 b5 ba d9 dd 6d bc 69 e4 06 bd
       0.03745301 -0.0013829645 -0.014518225 -0.032932673
0002b0 7b d7 a6 bc ea f3 23 bc 0d 6e 15 3d 14 26 30 bc
       -0.020366421 -0.010006884 0.036481906 -0.010751266
0002c0 84 23 62 3c 75 30 68 bc f5 2c a4 bc 08 cd 2f bd
       0.013802413 -0.014171709 -0.020040968 -0.042920142
0002d0 a7 ec 71 39 f0 42 0f 3d 40 0c a7 3c fa 19 19 bc
       0.00023071711 0.034975946 0.020391583 -0.009344572
0002e0 90 44 21 bd f2 14 09 bd a2 ce c9 3a 7e dc 23 3c
       -0.039372027 -0.03346724 0.0015396664 0.0100013
0002f0 22 83 ff bc 07 39 a7 bc 1d 14 49 bc a9 72 18 bc
       -0.031190459 -0.020412935 -0.012272862 -0.009304681
000300 0e ba f0 3c f8 af 05 3a 9c 6a 26 bc dc 04 1a 3d
       0.029385593 0.0005099769 -0.010157254 0.03760229
000310 d1 b2 b8 3c 8f 58 9b 3c 87 24 a4 b9 98 22 2a bb
       0.022546204 0.018963126 -0.00031307733 -0.002596056
000320 e0 1f 21 bd 0b f0 10 bd 81 cb 95 bb 31 ab 12 3c
       -0.03933704 -0.035385173 -0.0045713787 0.008951948
000330 84 7c a0 bc 40 06 0f 3d 30 31 24 3d d9 b6 00 3d
       -0.019590624 0.03491807 0.04008597 0.031424377
000340 0d 56 30 3c ff 9b ce bc 46 2a 28 bc 04 50 03 3d
       0.010762704 -0.02522087 -0.010263985 0.03205873
000350 26 5e 19 bd 1f ce df bb d4 35 28 bd de 77 54 3c
       -0.037443303 -0.0068299915 -0.04106696 0.012968032
000360 9b 81 fb ba a5 7b 15 3d 0b f2 bf bb 6d fb 23 3b
       -0.0019188406 0.03649487 -0.005857711 0.0025021688
000370 3d 7b 2d bd 97 a7 0c 3d 02 2e 67 38 c4 36 15 3d
       -0.042353857 0.034339514 5.511754e-05 0.03642918
000380 87 40 82 3c 8a 06 1c 3d 6d 02 f9 3b 47 7b a9 3b
       0.01589991 0.038092174 0.007599166 0.0051721665
000390 1f c0 81 3b 53 3b 22 bd 21 ed d8 bc cb 7c 20 bd
       0.00395967 -0.039607357 -0.02648026 -0.03918151
0003a0 5c 77 58 3c db 88 d3 bc e3 88 d1 bc a8 83 b7 bc
       0.013212051 -0.025822094 -0.025577968 -0.022401646
0003b0 b9 83 16 3d 00 43 ce 3c 67 3e bd 3b d6 1a a6 3c
       0.036746714 0.025178432 0.005775261 0.020276468
0003c0 af db a5 3b a5 d8 b8 bc e0 cc 0f bd 40 21 92 bc
       0.0050615887 -0.022564242 -0.035107493 -0.01783812
0003d0 7a f1 27 3d 9f ba 50 bc 8d 0a 30 bd 11 fe f1 bb
       0.041001774 -0.012739806 -0.042978812 -0.0073850234
0003e0 4e 7a 0b bd 0d 8e a6 bb f2 70 6a bc 51 df 02 3d
       -0.034052186 -0.0050828517 -0.014309155 0.031951252
0003f0 3b c8 fd 3c d7 1d 16 3a f4 e5 b3 bc e3 43 ef 3c
       0.030979266 0.00057264924 -0.021960236 0.029207176

1.bias f4 [18]
000000 b7 1d 58 bb 8b cf 6a bc 21 9e 28 bc 9b 0a ea 3c
       -0.0032976696 -0.014331709 -0.010291607 0.02856951
000010 92 c6 90 bc 57 16 f2 bc ff 28 02 3d 4c 0f 8a 3c
       -0.01767281 -0.029551668 0.03177738 0.016852997
000020 01 fb d6 3c 1c 13 4f bc c0 02 2e 3d 90 8d 09 bc
       0.026242735 -0.012638833 0.04248309 -0.008395568
000030 c4 60 09 bd 6e 8e 2a bc a2 59 1b 3d 75 d4 8a 3c
       -0.03353955 -0.010409934 0.037927277 0.01694701
000040 ba 02 2f bb ed df 25 bd
       -0.0026704506 -0.040496755

model.trunk.stages.3.blocks.0.token_mixer.qkv.lora_A.default.weight f4 [16, 512]
000000 87 cb 1b bd 12 8e c4 ba e5 1e 17 3d a8 9e b5 3c
       -0.038035896 -0.0014995954 0.036894698 0.02217038
000010 60 f4 de bc 26 c4 07 bd 76 c9 e1 bc e2 40 be 3c
       -0.027216136 -0.033146046 -0.027561884 0.023224298
000020 83 ae 33 3c 4d 91 28 bd 5c 65 b1 bc 38 8d 64 3c
       0.0109669 -0.041154195 -0.021654777 0.013949685
000030 7e c1 ee 3c ff 6e c1 bb ff 0e 2e 3d 94 ac 1c 3d
       0.029144999 -0.0059031243 0.04249477 0.03825052
000040 0c 11 0c 3d 10 30 4e 3c c2 12 4f bc 73 bd a6 3c
       0.034195945 0.012584701 -0.01263875 0.020354008
000050 ed e9 7b bc 11 2e 1b 3d fe 6f 5a bc dd d9 1b bd
       -0.0153755965 0.03788573 -0.013332365 -0.038049567
000060 86 21 f8 b9 39 32 68 b9 6a f1 09 3d 84 6e e2 bc
       -0.00047327223 -0.00022143954 0.033677496 -0.027640589
000070 94 8b 0f bd f1 57 a5 3a 57 88 8b bc 43 2e 18 3d
       -0.03504522 0.001261471 -0.017032785 0.037153494
000080 3d dc 79 bc 15 a8 26 bd da ce 0a bd 7a cc 7e bb
       -0.015250263 -0.04068764 -0.033888675 -0.0038879202
000090 ac e1 21 bc cc 0b 31 3d c5 80 30 bd 7e b9 7f bc
       -0.0098804645 0.04322414 -0.043091554 -0.01560819
0000a0 93 94 7e bc 0a c5 8b bc d5 77 87 3c ab 21 13 bd
       -0.015538353 -0.017061729 0.016536633 -0.03592078
0000b0 bf 09 d6 bc 6f 80 a9 3c c3 bd bf 3c 9a 5c c3 bb
       -0.026127694 0.020691125 0.023405915 -0.0059619667
0000c0 b2 c7 23 bc bd 9b 81 3c bb a9 52 bc 34 13 11 bd
       -0.009996342 0.015821332 -0.01285785 -0.035418704
0000d0 2d 34 90 bc f3 a4 29 3c 83 02 7e bc d8 b8 39 bc
       -0.017603004 0.010354268 -0.0155035285 -0.011335574
0000e0 97 04 2e 3d 5d 68 2d 3c e8 9b 01 3d 7f 4f f8 bc
       0.042484846 0.010583964 0.031642824 -0.030311344
0000f0 66 9c 02 bd 05 45 32 bd ed e3 e0 3c 2a da f8 3c
       -0.031887434 -0.043522853 0.027452433 0.030377466
000100 78 05 b5 3c 65 ff 1c 3d 5f 04 ad 3c 9b 56 b8 bc
       0.022097334 0.0383295 0.021120248 -0.022502234
000110 c2 3d 27 3d 14 c6 a0 3b dc 36 97 3c 05 2d 27 3d
       0.04083038 0.0049064253 0.018458776 0.04081442
000120 c0 7d 0c 3b 70 44 d6 3b 12 ea 36 3c 45 6e 62 bc
       0.0021437258 0.00653892 0.011164205 -0.013820236
000130 97 fa 89 3b 1d 6b f2 3c 35 1e ee 3c f9 19 0b 3d
       0.004210781 0.029592091 0.029067138 0.033960316
000140 83 5d 11 bd e7 ac 0a 3d 91 6b d1 3c 66 57 62 bc
       -0.03548957 0.0338563 0.025563987 -0.013814783
000150 3c 71 1d bd 57 42 33 bd b1 de bc bc 86 91 1e bd
       -0.038438067 -0.04376444 -0.023055406 -0.038713
000160 e6 7e 29 b9 13 f9 18 bc 24 6f 08 bc d1 fa 0b 3d
       -0.0001616437 -0.009336728 -0.008327279 0.034174744
000170 8b e5 2b 3d 76 b2 0d bd ec 44 f8 3c fa 8c f9 39
       0.041966956 -0.03459402 0.030306302 0.00047598017
000180 1b dc 6c bc a0 3e 19 3d 26 83 fa 3c b8 98 09 3d
       -0.014456774 0.03741324 0.030580115 0.03359291
000190 42 59 26 3d 3b 18 24 3d 4c da 46 bb e0 92 26 3d
       0.040612467 0.04006217 -0.0030342517 0.040667415
0001a0 8c 8f 0e 3c 9e c2 d9 bb 36 a2 07 bb e8 44 04 3d
       0.008701216 -0.0066455146 -0.002069605 0.032292277
0001b0 e2 63 bf 3c f7 45 e4 bc c7 ca 02 bd b0 e9 76 3b
       0.023363058 -0.027865393 -0.031931665 0.003767591
0001c0 02 f3 27 bd a5 b4 41 3c 75 db 0d bc 73 b4 b6 bc
       -0.041003235 0.011822854 -0.00865828 -0.022302842
0001d0 1a f6 1f bd cb da e8 bc 5e 71 7f bc d5 44 46 bb
       -0.03905306 -0.028424641 -0.015590994 -0.003025343
0001e0 c1 6b 98 3c 09 d3 11 3d b5 6b b6 bc bc 4b d9 3a
       0.018606069 0.03560165 -0.022268156 0.0016578357
0001f0 70 14 c6 bc 9b 3e ae bc f6 86 07 bd c1 c0 aa bc
       -0.024179667 -0.021270087 -0.033087693 -0.020843865
000200 86 eb 11 bc 6c 8d 9e 3c da af 05 3d 05 07 97 3c
       -0.008906251 0.019354545 0.03263841 0.018435964
000210 3a aa ac bc f0 36 1a 3d 21 33 af bc 0c 3d 34 3d
       -0.021077264 0.03765005 -0.021386685 0.04400353
000220 ca 12 20 3d 36 19 c6 bc d6 6f 28 3c 5f e8 a0 3c
       0.03908042 -0.024181943 0.01028057 0.019642053
000230 83 5a 29 3d ff a1 2d 3d 23 a4 35 bc 53 82 e2 3c
       0.041346084 0.04239082 -0.0110864965 0.027650034
000240 fd ea 3c 3c 98 f8 86 bb 5a 7e 3d 39 36 8c de bb
       0.011530635 -0.00411899 0.00018071514 -0.006791617
000250 df 97 35 bc 7c 09 0a bc b5 84 ef 3c d0 e3 95 bb
       -0.011083572 -0.008425113 0.029238084 -0.0045742765
000260 f8 17 a1 3c d2 a7 05 bd fe 8b 18 3d 41 51 0b bd
       0.01966475 -0.03263075 0.037242882 -0.034013037
000270 d2 e7 0f 3c 8b 7d b5 bc 82 d1 00 bd 0c 07 29 bc
       0.008783298 -0.02215459 -0.031449802 -0.0103166215
000280 a6 e2 68 3b 2a ec 2c 3d dc c6 85 bc ce 9a 9b 3c
       0.0035535484 0.04221741 -0.016330175 0.018994715
000290 24 c7 52 3b 30 9e 3e 3c 29 2c 22 3d 4b 4d 9c 3c
       0.0032162154 0.0116343945 0.039592896 0.019079825
0002a0 18 9f 90 3b 7c 0e 08 bd 3a 85 1f bc 4c 97 68 3c
       0.0044134967 -0.03321694 -0.0097363535 0.014196228
0002b0 fe 2c f8 bc d4 bb 06 bd 5a 9f c8 3c 23 55 1a 3d
       -0.030294891 -0.03289397 0.024490047 0.03767885
0002c0 51 7d 1b bc 88 7f 66 3b b8 30 de 3c ed f6 d4 3c
       -0.009490327 0.003517123 0.02712284 0.02599665
0002d0 9f 1f f0 3a 8c b1 31 3d 41 81 6e bb ca 80 05 bd
       0.0018319971 0.043382213 -0.003639296 -0.032593526
0002e0 c9 31 fa 3c 99 16 80 3c 13 fc 00 bc 35 d2 15 3d
       0.030541318 0.015635775 -0.007872599 0.036577422
0002f0 cd 2b a5 bc e5 71 0c bd 86 9c 25 3d 5e a7 ac 3c
       -0.020162487 -0.034288306 0.040432476 0.0210759
000300 1d b7 0c 3d dc 3f 8f 3c a3 46 e9 3c 39 a8 bc 3c
       0.034354318 0.017486505 0.028476065 0.023029434
000310 50 80 ef 3c 72 36 b5 b9 9f b9 08 bd 20 85 22 bc
       0.029235989 -0.00034563575 -0.033380147 -0.009919435
000320 15 13 d4 3b d5 c6 5a bc e5 89 21 bd e8 48 a5 3c
       0.0064720013 -0.013353069 -0.039438147 0.020176366
000330 5b ef 20 bd 8f dc bc bc 24 6d fe 3c fa d6 23 3d
       -0.039290767 -0.02305439 0.031057902 0.03999994
000340 fe dd 9d 3c 78 6a 6b bc 43 73 e5 3c 5d 59 33 bd
       0.019270893 -0.014368646 0.028009063 -0.043786395
000350 02 8d 8a 3b 55 12 19 bc 88 4f 23 3c 63 5f 31 3d
       0.004228235 -0.00934275 0.009967692 0.04330386
000360 7c 50 19 3d 31 ce 86 3c 12 b8 bd 3b 06 d6 7e 3b
       0.03743027 0.016455742 0.005789765 0.0038884892
000370 54 42 05 3d a0 ea 2c 3d cd 11 04 bc f0 f3 92 bc
       0.03253396 0.042215943 -0.008060885 -0.017938584
000380 f9 60 33 3d 6b 9f 59 3c 12 28 13 bd d0 74 51 3c
       0.043793652 0.013282637 -0.035926886 0.012784198
000390 4b c3 24 3d 1b ce 1f bd 98 37 05 3d 89 9f bc 3c
       0.04022531 -0.039014917 0.03252372 0.023025291
0003a0 bd 17 3c bc 74 0d d1 bc 75 52 3f b9 b4 07 fe bc
       -0.011480269 -0.02551911 -0.00018245897 -0.031009533
0003b0 3e 22 47 bb ad ad b2 3c 24 a2 e7 bc ca 0b 61 3b
       -0.00303854 0.02181133 -0.028275557 0.0034339302
0003c0 9a dc 11 3d d9 b3 13 bc 8f 73 23 bd c5 b1 24 bc
       0.035610773 -0.009015047 -0.039905127 -0.010052149
0003d0 39 75 e8 ba 1f 58 01 3d 95 91 a1 bc b8 54 a0 3c
       -0.001773513 0.03157818 -0.01972274 0.019571647
0003e0 1d f4 16 3d c9 c0 07 bd ec 38 2f 3d 2a a2 6d ba
       0.0368539 -0.03314284 0.042778894 -0.0009064997
0003f0 8e 9f b0 bc f2 85 8c 3c 46 b7 15 bd ea 4b 1a 3c
       -0.021560457 0.017153714 -0.036551736 0.009417513

model.trunk.stages.3.blocks.0.token_mixer.qkv.lora_B.default.weight f4 [1536, 16]
000000 00 00 00 00 00 00 00 00 00 00 00 00 00 00 00 00
       0.0 0.0 0.0 0.0
000010 00 00 00 00 00 00 00 00 00 00 00 00 00 00 00 00
       0.0 0.0 0.0 0.0
000020 00 00 00 00 00 00 00 00 00 00 00 00 00 00 00 00
       0.0 0.0 0.0 0.0
000030 00 00 00 00 00 00 00 00 00 00 00 00 00 00 00 00
       0.0 0.0 0.0 0.0
000040 00 00 00 00 00 00 00 00 00 00 00 00 00 00 00 00
       0.0 0.0 0.0 0.0
000050 00 00 00 00 00 00 00 00 00 00 00 00 00 00 00 00
       0.0 0.0 0.0 0.0
000060 00 00 00 00 00 00 00 00 00 00 00 00 00 00 00 00
       0.0 0.0 0.0 0.0
000070 00 00 00 00 00 00 00 00 00 00 00 00 00 00 00 00
       0.0 0.0 0.0 0.0
000080 00 00 00 00 00 00 00 00 00 00 00 00 00 00 00 00
       0.0 0.0 0.0 0.0
000090 00 00 00 00 00 00 00 00 00 00 00 00 00 00 00 00
       0.0 0.0 0.0 0.0
0000a0 00 00 00 00 00 00 00 00 00 00 00 00 00 00 00 00
       0.0 0.0 0.0 0.0
0000b0 00 00 00 00 00 00 00 00 00 00 00 00 00 00 00 00
       0.0 0.0 0.0 0.0
0000c0 00 00 00 00 00 00 00 00 00 00 00 00 00 00 00 00
       0.0 0.0 0.0 0.0
0000d0 00 00 00 00 00 00 00 00 00 00 00 00 00 00 00 00
       0.0 0.0 0.0 0.0
0000e0 00 00 00 00 00 00 00 00 00 00 00 00 00 00 00 00
       0.0 0.0 0.0 0.0
0000f0 00 00 00 00 00 00 00 00 00 00 00 00 00 00 00 00
       0.0 0.0 0.0 0.0
000100 00 00 00 00 00 00 00 00 00 00 00 00 00 00 00 00
       0.0 0.0 0.0 0.0
000110 00 00 00 00 00 00 00 00 00 00 00 00 00 00 00 00
       0.0 0.0 0.0 0.0
000120 00 00 00 00 00 00 00 00 00 00 00 00 00 00 00 00
       0.0 0.0 0.0 0.0
000130 00 00 00 00 00 00 00 00 00 00 00 00 00 00 00 00
       0.0 0.0 0.0 0.0
000140 00 00 00 00 00 00 00 00 00 00 00 00 00 00 00 00
       0.0 0.0 0.0 0.0
000150 00 00 00 00 00 00 00 00 00 00 00 00 00 00 00 00
       0.0 0.0 0.0 0.0
000160 00 00 00 00 00 00 00 00 00 00 00 00 00 00 00 00
       0.0 0.0 0.0 0.0
000170 00 00 00 00 00 00 00 00 00 00 00 00 00 00 00 00
       0.0 0.0 0.0 0.0
000180 00 00 00 00 00 00 00 00 00 00 00 00 00 00 00 00
       0.0 0.0 0.0 0.0
000190 00 00 00 00 00 00 00 00 00 00 00 00 00 00 00 00
       0.0 0.0 0.0 0.0
0001a0 00 00 00 00 00 00 00 00 00 00 00 00 00 00 00 00
       0.0 0.0 0.0 0.0
0001b0 00 00 00 00 00 00 00 00 00 00 00 00 00 00 00 00
       0.0 0.0 0.0 0.0
0001c0 00 00 00 00 00 00 00 00 00 00 00 00 00 00 00 00
       0.0 0.0 0.0 0.0
0001d0 00 00 00 00 00 00 00 00 00 00 00 00 00 00 00 00
       0.0 0.0 0.0 0.0
0001e0 00 00 00 00 00 00 00 00 00 00 00 00 00 00 00 00
       0.0 0.0 0.0 0.0
0001f0 00 00 00 00 00 00 00 00 00 00 00 00 00 00 00 00
       0.0 0.0 0.0 0.0
000200 00 00 00 00 00 00 00 00 00 00 00 00 00 00 00 00
       0.0 0.0 0.0 0.0
000210 00 00 00 00 00 00 00 00 00 00 00 00 00 00 00 00
       0.0 0.0 0.0 0.0
000220 00 00 00 00 00 00 00 00 00 00 00 00 00 00 00 00
       0.0 0.0 0.0 0.0
000230 00 00 00 00 00 00 00 00 00 00 00 00 00 00 00 00
       0.0 0.0 0.0 0.0
000240 00 00 00 00 00 00 00 00 00 00 00 00 00 00 00 00
       0.0 0.0 0.0 0.0
000250 00 00 00 00 00 00 00 00 00 00 00 00 00 00 00 00
       0.0 0.0 0.0 0.0
000260 00 00 00 00 00 00 00 00 00 00 00 00 00 00 00 00
       0.0 0.0 0.0 0.0
000270 00 00 00 00 00 00 00 00 00 00 00 00 00 00 00 00
       0.0 0.0 0.0 0.0
000280 00 00 00 00 00 00 00 00 00 00 00 00 00 00 00 00
       0.0 0.0 0.0 0.0
000290 00 00 00 00 00 00 00 00 00 00 00 00 00 00 00 00
       0.0 0.0 0.0 0.0
0002a0 00 00 00 00 00 00 00 00 00 00 00 00 00 00 00 00
       0.0 0.0 0.0 0.0
0002b0 00 00 00 00 00 00 00 00 00 00 00 00 00 00 00 00
       0.0 0.0 0.0 0.0
0002c0 00 00 00 00 00 00 00 00 00 00 00 00 00 00 00 00
       0.0 0.0 0.0 0.0
0002d0 00 00 00 00 00 00 00 00 00 00 00 00 00 00 00 00
       0.0 0.0 0.0 0.0
0002e0 00 00 00 00 00 00 00 00 00 00 00 00 00 00 00 00
       0.0 0.0 0.0 0.0
0002f0 00 00 00 00 00 00 00 00 00 00 00 00 00 00 00 00
       0.0 0.0 0.0 0.0
000300 00 00 00 00 00 00 00 00 00 00 00 00 00 00 00 00
       0.0 0.0 0.0 0.0
000310 00 00 00 00 00 00 00 00 00 00 00 00 00 00 00 00
       0.0 0.0 0.0 0.0
000320 00 00 00 00 00 00 00 00 00 00 00 00 00 00 00 00
       0.0 0.0 0.0 0.0
000330 00 00 00 00 00 00 00 00 00 00 00 00 00 00 00 00
       0.0 0.0 0.0 0.0
000340 00 00 00 00 00 00 00 00 00 00 00 00 00 00 00 00
       0.0 0.0 0.0 0.0
000350 00 00 00 00 00 00 00 00 00 00 00 00 00 00 00 00
       0.0 0.0 0.0 0.0
000360 00 00 00 00 00 00 00 00 00 00 00 00 00 00 00 00
       0.0 0.0 0.0 0.0
000370 00 00 00 00 00 00 00 00 00 00 00 00 00 00 00 00
       0.0 0.0 0.0 0.0
000380 00 00 00 00 00 00 00 00 00 00 00 00 00 00 00 00
       0.0 0.0 0.0 0.0
000390 00 00 00 00 00 00 00 00 00 00 00 00 00 00 00 00
       0.0 0.0 0.0 0.0
0003a0 00 00 00 00 00 00 00 00 00 00 00 00 00 00 00 00
       0.0 0.0 0.0 0.0
0003b0 00 00 00 00 00 00 00 00 00 00 00 00 00 00 00 00
       0.0 0.0 0.0 0.0
0003c0 00 00 00 00 00 00 00 00 00 00 00 00 00 00 00 00
       0.0 0.0 0.0 0.0
0003d0 00 00 00 00 00 00 00 00 00 00 00 00 00 00 00 00
       0.0 0.0 0.0 0.0
0003e0 00 00 00 00 00 00 00 00 00 00 00 00 00 00 00 00
       0.0 0.0 0.0 0.0
0003f0 00 00 00 00 00 00 00 00 00 00 00 00 00 00 00 00
       0.0 0.0 0.0 0.0

model.trunk.stages.3.blocks.0.token_mixer.proj.lora_A.default.weight f4 [16, 512]
000000 92 8f 34 b9 f1 23 d0 bc 07 b6 b2 3b 55 8d 6c bb
       -0.00017219622 -0.025407763 0.0054538283 -0.0036094983
000010 5b 2a a5 3c 91 97 f6 bc fc ac db bc 17 20 0c 3d
       0.020161798 -0.03010157 -0.026815884 0.03421029
000020 6b e5 38 bc bd d8 6a 3c 9c 5d 8a bc 27 4c 11 3d
       -0.011285166 0.014333901 -0.01689034 0.035473015
000030 a0 f1 0c bd ab f9 b6 3c de 83 dc 3b 13 f7 17 3d
       -0.03441012 0.022335848 0.006729587 0.037100863
000040 d7 45 99 3c 22 e8 20 bd 56 ad 16 3d 6b c9 b4 3b
       0.01871006 -0.03928388 0.0367864 0.005517175
000050 40 42 97 bc 07 16 2d 3c b6 d6 58 b9 44 6c 15 bb
       -0.018464208 0.010564334 -0.00020679351 -0.0022800127
000060 8e ed 09 3c 81 e1 2f 3d 4d 17 85 3c 82 2d 19 bd
       0.008418454 0.042939667 0.016246462 -0.037396915
000070 15 3a bd bc 3b 0d 1f 3d e6 8f 06 3c de eb 82 3c
       -0.023098985 0.038830977 0.008213019 0.01598161
000080 56 59 34 bd a3 84 91 bc d3 da d9 3c 82 24 17 bc
       -0.04403051 -0.017763441 0.026593601 -0.009225013
000090 1b 47 08 3d bb 90 4b 3c 5e e9 0d 3d 9d 95 cd bc
       0.033270936 0.012424643 0.034646384 -0.025095755
0000a0 b8 c5 25 b8 ab 0d 26 3c fc 22 06 bc b1 2d 10 bd
       -3.9523205e-05 0.010135095 -0.008187052 -0.035199825
0000b0 b9 52 82 3c 97 27 5c bb ec 59 72 3c ad d1 15 3d
       0.015908586 -0.0033592933 0.014791947 0.036576916
0000c0 5d 3f 11 3c 09 4b b2 bc 6a ba 2d bd 3e b7 58 bb
       0.008865205 -0.021764295 -0.042414106 -0.0033068205
0000d0 8d 5c ba bc 73 42 07 3d 0d 15 2e 3b 20 de da bc
       -0.02274921 0.033022355 0.002656284 -0.026717246
0000e0 47 92 23 bd 68 5f 26 bd 11 b4 89 3c 35 80 93 39
       -0.039934423 -0.04061833 0.016809495 0.00028133547
0000f0 e6 76 b0 bc 34 f3 32 3d de 5a f1 3c c5 d4 c0 3c
       -0.02154107 0.043688968 0.029462274 0.023538956
000100 78 c5 19 bd 9b 08 a0 3c 49 e7 f5 bc 22 89 ab 3c
       -0.037541837 0.019535353 -0.030017512 0.020939413
000110 63 1c 17 3d 8c 2c b5 ba 79 1c 93 bc fd b4 d2 bc
       0.036892306 -0.001382248 -0.017957913 -0.025721068
000120 44 29 0e 3d c3 e7 2f bd 0c 80 0a bd 1e 9a 19 3b
       0.034707323 -0.042945635 -0.03381352 0.0023437808
000130 bb 76 88 3c d6 1b 0e 3d 44 5e 11 bd bb 39 0f 3d
       0.016658178 0.034694515 -0.03549029 0.034967165
000140 62 8f 32 bd 29 f0 f2 bc 63 49 2e 3d c8 b1 11 3d
       -0.04359377 -0.029655533 0.042550456 0.035569936
000150 1d b5 81 bc 94 b8 82 bc ff cf 3e 3c 19 63 1b 3d
       -0.015833432 -0.015957154 0.01164627 0.037936304
000160 72 02 ae bb 96 14 a8 bc bd 8b 05 bd d6 0c 20 bc
       -0.00531035 -0.020517629 -0.032603968 -0.009768685
000170 b6 54 17 bd a3 26 32 bd f5 e3 15 bd 05 8f 10 bd
       -0.03694602 -0.043493878 -0.03659435 -0.035292644
000180 af 66 24 3c 32 ef 14 3a 86 fd 22 bd 74 1e ef bb
       0.010034247 0.0005681395 -0.03979256 -0.0072973315
000190 36 b7 45 3c ef 4e 08 3d 7e 11 04 bd b0 5d 24 3d
       0.012067607 0.033278402 -0.032243244 0.04012841
0001a0 ea 21 a9 3a c1 93 d0 3a 2b 4f dc bc 96 2d 27 3d
       0.0012903784 0.0015913175 -0.026893219 0.04081496
0001b0 af ce 9c 3c 26 ad 00 3d d0 93 ef 3c ba 86 20 bd
       0.019141523 0.031415127 0.029245287 -0.039190985
0001c0 f4 09 2b bd 1f c9 19 3d 02 0c 59 3b 87 50 c7 bc
       -0.04175754 0.03754532 0.003311873 -0.02433039
0001d0 6e ef 9a 3b 33 94 ed 3b b0 fb 0e bd d9 0c 55 bc
       0.0047282493 0.0072503327 -0.034907997 -0.013003551
0001e0 b8 1b 94 3c b5 d4 89 3c 4f dc a0 bb 40 a1 e6 bc
       0.018079624 0.01682506 -0.0049090753 -0.028153062
0001f0 dd c1 8a 3c 3a e6 87 3b 2e 78 6d bb 43 c4 03 bb
       0.016938144 0.004147318 -0.0036234963 -0.0020105995
000200 a4 a9 2a 3d c2 c8 d1 3b 11 88 86 bc 42 21 56 bc
       0.04166569 0.006402106 -0.016422303 -0.013069453
000210 a6 3a d4 bc b4 c3 d0 bb 68 cf fc bb 2d b4 26 bd
       -0.025906872 -0.006370986 -0.0077151544 -0.040699173
000220 13 49 f2 bc 0f c7 ea bb 95 bf fc 3b 59 fb 32 3c
       -0.02957586 -0.007164843 0.007713268 0.010924184
000230 64 c9 9c 3c a8 a3 e2 bb bb f5 a8 3c 97 79 72 3c
       0.019139 -0.006916482 0.020624986 0.014799497
000240 e9 ed 19 3b 00 45 0e bd 05 b1 27 bd dd 19 8d 3c
       0.0023487753 -0.034733772 -0.040940303 0.017224247
000250 ca b5 16 bd 7e e4 1d 3d 91 a5 2b bd 34 26 f9 bc
       -0.03679446 0.038547985 -0.041905943 -0.030413724
000260 bb c4 63 ba ff f2 e0 bc 68 9a 01 bd 39 44 83 3c
       -0.0008688678 -0.02745962 -0.031641394 0.016023742
000270 30 ca a6 bc bd 7e a6 bc 95 8f 8a 3c 03 3c 90 3c
       -0.020360082 -0.020324105 0.016914168 0.01760674
000280 63 ee 73 bc 5f c1 ce bb b8 8d 61 3b 38 d3 e9 bc
       -0.014888379 -0.0063096727 0.0034416746 -0.0285431
000290 dd 33 16 bd f9 80 97 bc 0d 11 3f ba 3d 5e b2 3c
       -0.036670554 -0.018494116 -0.00072886125 0.021773452
0002a0 9c e1 34 bd 20 aa b3 bc 4d 91 e5 bc 4e 9c 80 39
       -0.04416047 -0.021931708 -0.028023386 0.0002453052
0002b0 dd 80 e9 bc 5e 59 0e bc 83 0f 1c 3c 61 e3 4a bb
       -0.02850383 -0.008688299 0.009525183 -0.0030958282
0002c0 0d ec 0d bd 93 14 95 bc 90 0d 1d bc e4 b7 85 3c
       -0.034648944 -0.018198287 -0.009585753 0.016323037
0002d0 7f 91 b3 3b 80 ef b5 3c 6e 6d 38 bc db 31 18 bd
       0.005479991 0.022208929 -0.011256559 -0.03715692
0002e0 35 fc 80 bb e4 2d c7 3c 2c 88 c0 3b 76 81 b6 3b
       -0.0039363154 0.024313875 0.005875608 0.005569632
0002f0 e0 79 18 bd 38 d6 c8 bb f0 07 19 bd ff 2d f6 3b
       -0.037225604 -0.0061290525 -0.037361085 0.0075128074
000300 bb 72 2f bd 66 9b 01 bd 09 81 c6 bc b6 7c d1 bc
       -0.042834025 -0.03164234 -0.02423145 -0.025572162
000310 63 89 2a 3d be 21 f0 3c ee 9d 26 3d 9d e6 7f 3c
       0.04163493 0.029312965 0.040677957 0.015618947
000320 85 a6 96 3c 3c 54 fc bc 23 ae 11 bb 93 b2 ad bc
       0.01838995 -0.030801885 -0.0022229038 -0.021203315
000330 85 ed af 3c 42 93 e7 3b 48 37 f9 3b c0 b2 25 3d
       0.021475563 0.007067115 0.007605467 0.040453672
000340 03 15 28 3d 28 98 60 3c bb 49 9b 3c ac 69 17 3c
       0.041035663 0.013708152 0.018956056 0.009241503
000350 9e 4a a9 bc e1 57 2c bd 22 98 11 bd 46 05 b2 3c
       -0.020665463 -0.042075995 -0.035545476 0.02173103
000360 f3 cd 62 37 16 ec 97 3c 60 7d cf 3b 68 31 c4 bc
       1.3518601e-05 0.018545192 0.0063320845 -0.02394934
000370 18 d3 a0 3c 66 0b 18 39 a9 03 05 bd ee 24 1f bc
       0.019631907 0.00014500096 -0.032474194 -0.009713395
000380 a5 b4 f0 bc 7f 97 0b 3d da 84 8e 3c dd 6b 7b bb
       -0.029383013 0.034080025 0.017397333 -0.0038363852
000390 f9 f2 99 bc b7 3f 2b 3c 8a 7d e6 bc b3 cb 05 bc
       -0.018792616 0.0104522025 -0.028136034 -0.008166241
0003a0 b7 fd c2 bc b6 84 ba 3c de 75 2c 3c 4b e2 96 3c
       -0.023802621 0.02276836 0.010526149 0.018418452
0003b0 34 b0 29 bd 9a e5 f8 bc 0f fd fc bb 54 50 e4 3c
       -0.041427806 -0.03038292 -0.0077205966 0.027870335
0003c0 a1 b6 e8 bc e3 71 df 3c 9a 50 95 bc 93 fb 0e 3d
       -0.028407397 0.027275985 -0.01822691 0.03490789
0003d0 22 19 44 bc 33 b5 eb bc d2 f1 a6 3c 7a 9a 01 bd
       -0.011968883 -0.028772926 0.02037898 -0.03164146
0003e0 f0 a0 f1 bc 8f 9e ac 3c ee 70 93 3c 1a 42 22 3c
       -0.029495686 0.0210717 0.017998185 0.009903455
0003f0 ef 94 4e bc e9 62 0d bd 35 e1 5c 3a c4 8f 13 bb
       -0.012608751 -0.034518156 0.00084258924 -0.002251611

model.trunk.stages.3.blocks.0.token_mixer.proj.lora_B.default.weight f4 [512, 16]
000000 00 00 00 00 00 00 00 00 00 00 00 00 00 00 00 00
       0.0 0.0 0.0 0.0
000010 00 00 00 00 00 00 00 00 00 00 00 00 00 00 00 00
       0.0 0.0 0.0 0.0
000020 00 00 00 00 00 00 00 00 00 00 00 00 00 00 00 00
       0.0 0.0 0.0 0.0
000030 00 00 00 00 00 00 00 00 00 00 00 00 00 00 00 00
       0.0 0.0 0.0 0.0
000040 00 00 00 00 00 00 00 00 00 00 00 00 00 00 00 00
       0.0 0.0 0.0 0.0
000050 00 00 00 00 00 00 00 00 00 00 00 00 00 00 00 00
       0.0 0.0 0.0 0.0
000060 00 00 00 00 00 00 00 00 00 00 00 00 00 00 00 00
       0.0 0.0 0.0 0.0
000070 00 00 00 00 00 00 00 00 00 00 00 00 00 00 00 00
       0.0 0.0 0.0 0.0
000080 00 00 00 00 00 00 00 00 00 00 00 00 00 00 00 00
       0.0 0.0 0.0 0.0
000090 00 00 00 00 00 00 00 00 00 00 00 00 00 00 00 00
       0.0 0.0 0.0 0.0
0000a0 00 00 00 00 00 00 00 00 00 00 00 00 00 00 00 00
       0.0 0.0 0.0 0.0
0000b0 00 00 00 00 00 00 00 00 00 00 00 00 00 00 00 00
       0.0 0.0 0.0 0.0
0000c0 00 00 00 00 00 00 00 00 00 00 00 00 00 00 00 00
       0.0 0.0 0.0 0.0
0000d0 00 00 00 00 00 00 00 00 00 00 00 00 00 00 00 00
       0.0 0.0 0.0 0.0
0000e0 00 00 00 00 00 00 00 00 00 00 00 00 00 00 00 00
       0.0 0.0 0.0 0.0
0000f0 00 00 00 00 00 00 00 00 00 00 00 00 00 00 00 00
       0.0 0.0 0.0 0.0
000100 00 00 00 00 00 00 00 00 00 00 00 00 00 00 00 00
       0.0 0.0 0.0 0.0
000110 00 00 00 00 00 00 00 00 00 00 00 00 00 00 00 00
       0.0 0.0 0.0 0.0
000120 00 00 00 00 00 00 00 00 00 00 00 00 00 00 00 00
       0.0 0.0 0.0 0.0
000130 00 00 00 00 00 00 00 00 00 00 00 00 00 00 00 00
       0.0 0.0 0.0 0.0
000140 00 00 00 00 00 00 00 00 00 00 00 00 00 00 00 00
       0.0 0.0 0.0 0.0
000150 00 00 00 00 00 00 00 00 00 00 00 00 00 00 00 00
       0.0 0.0 0.0 0.0
000160 00 00 00 00 00 00 00 00 00 00 00 00 00 00 00 00
       0.0 0.0 0.0 0.0
000170 00 00 00 00 00 00 00 00 00 00 00 00 00 00 00 00
       0.0 0.0 0.0 0.0
000180 00 00 00 00 00 00 00 00 00 00 00 00 00 00 00 00
       0.0 0.0 0.0 0.0
000190 00 00 00 00 00 00 00 00 00 00 00 00 00 00 00 00
       0.0 0.0 0.0 0.0
0001a0 00 00 00 00 00 00 00 00 00 00 00 00 00 00 00 00
       0.0 0.0 0.0 0.0
0001b0 00 00 00 00 00 00 00 00 00 00 00 00 00 00 00 00
       0.0 0.0 0.0 0.0
0001c0 00 00 00 00 00 00 00 00 00 00 00 00 00 00 00 00
       0.0 0.0 0.0 0.0
0001d0 00 00 00 00 00 00 00 00 00 00 00 00 00 00 00 00
       0.0 0.0 0.0 0.0
0001e0 00 00 00 00 00 00 00 00 00 00 00 00 00 00 00 00
       0.0 0.0 0.0 0.0
0001f0 00 00 00 00 00 00 00 00 00 00 00 00 00 00 00 00
       0.0 0.0 0.0 0.0
000200 00 00 00 00 00 00 00 00 00 00 00 00 00 00 00 00
       0.0 0.0 0.0 0.0
000210 00 00 00 00 00 00 00 00 00 00 00 00 00 00 00 00
       0.0 0.0 0.0 0.0
000220 00 00 00 00 00 00 00 00 00 00 00 00 00 00 00 00
       0.0 0.0 0.0 0.0
000230 00 00 00 00 00 00 00 00 00 00 00 00 00 00 00 00
       0.0 0.0 0.0 0.0
000240 00 00 00 00 00 00 00 00 00 00 00 00 00 00 00 00
       0.0 0.0 0.0 0.0
000250 00 00 00 00 00 00 00 00 00 00 00 00 00 00 00 00
       0.0 0.0 0.0 0.0
000260 00 00 00 00 00 00 00 00 00 00 00 00 00 00 00 00
       0.0 0.0 0.0 0.0
000270 00 00 00 00 00 00 00 00 00 00 00 00 00 00 00 00
       0.0 0.0 0.0 0.0
000280 00 00 00 00 00 00 00 00 00 00 00 00 00 00 00 00
       0.0 0.0 0.0 0.0
000290 00 00 00 00 00 00 00 00 00 00 00 00 00 00 00 00
       0.0 0.0 0.0 0.0
0002a0 00 00 00 00 00 00 00 00 00 00 00 00 00 00 00 00
       0.0 0.0 0.0 0.0
0002b0 00 00 00 00 00 00 00 00 00 00 00 00 00 00 00 00
       0.0 0.0 0.0 0.0
0002c0 00 00 00 00 00 00 00 00 00 00 00 00 00 00 00 00
       0.0 0.0 0.0 0.0
0002d0 00 00 00 00 00 00 00 00 00 00 00 00 00 00 00 00
       0.0 0.0 0.0 0.0
0002e0 00 00 00 00 00 00 00 00 00 00 00 00 00 00 00 00
       0.0 0.0 0.0 0.0
0002f0 00 00 00 00 00 00 00 00 00 00 00 00 00 00 00 00
       0.0 0.0 0.0 0.0
000300 00 00 00 00 00 00 00 00 00 00 00 00 00 00 00 00
       0.0 0.0 0.0 0.0
000310 00 00 00 00 00 00 00 00 00 00 00 00 00 00 00 00
       0.0 0.0 0.0 0.0
000320 00 00 00 00 00 00 00 00 00 00 00 00 00 00 00 00
       0.0 0.0 0.0 0.0
000330 00 00 00 00 00 00 00 00 00 00 00 00 00 00 00 00
       0.0 0.0 0.0 0.0
000340 00 00 00 00 00 00 00 00 00 00 00 00 00 00 00 00
       0.0 0.0 0.0 0.0
000350 00 00 00 00 00 00 00 00 00 00 00 00 00 00 00 00
       0.0 0.0 0.0 0.0
000360 00 00 00 00 00 00 00 00 00 00 00 00 00 00 00 00
       0.0 0.0 0.0 0.0
000370 00 00 00 00 00 00 00 00 00 00 00 00 00 00 00 00
       0.0 0.0 0.0 0.0
000380 00 00 00 00 00 00 00 00 00 00 00 00 00 00 00 00
       0.0 0.0 0.0 0.0
000390 00 00 00 00 00 00 00 00 00 00 00 00 00 00 00 00
       0.0 0.0 0.0 0.0
0003a0 00 00 00 00 00 00 00 00 00 00 00 00 00 00 00 00
       0.0 0.0 0.0 0.0
0003b0 00 00 00 00 00 00 00 00 00 00 00 00 00 00 00 00
       0.0 0.0 0.0 0.0
0003c0 00 00 00 00 00 00 00 00 00 00 00 00 00 00 00 00
       0.0 0.0 0.0 0.0
0003d0 00 00 00 00 00 00 00 00 00 00 00 00 00 00 00 00
       0.0 0.0 0.0 0.0
0003e0 00 00 00 00 00 00 00 00 00 00 00 00 00 00 00 00
       0.0 0.0 0.0 0.0
0003f0 00 00 00 00 00 00 00 00 00 00 00 00 00 00 00 00
       0.0 0.0 0.0 0.0

model.trunk.stages.3.blocks.1.token_mixer.qkv.lora_A.default.weight f4 [16, 512]
000000 86 91 8c bc b5 c5 0e 3d 21 8d 32 3d 27 e6 25 bd
       -0.017159235 0.034856517 0.043591622 -0.040502694
000010 a7 73 e2 3c 06 f8 d1 bc dd 78 2a ba 29 a8 86 b9
       0.027643038 -0.025630962 -0.00065029954 -0.0002568376
000020 8d 5c af bc 49 30 86 3c d4 9f 52 3c 52 85 f2 3c
       -0.021406436 0.016380446 0.012855489 0.029604588
000030 13 0a 42 bb 04 59 ad 3c 92 a9 32 bd 39 32 be 3b
       -0.0029608055 0.02116061 -0.043618746 0.005804327
000040 6a 1b 3b b9 75 1f 2c 3d 6a 35 90 3c 23 8b b9 bc
       -0.00017843922 0.042022187 0.017603595 -0.022649353
000050 a1 1f 30 3d 99 1f 30 bd 10 e5 17 3c a7 ec dc bc
       0.042998914 -0.042998884 0.009270921 -0.026968313
000060 44 c4 c4 bc 6a ed 56 bc 21 f1 e2 3a b8 da 1b bc
       -0.024019368 -0.013118127 0.0017314294 -0.009512596
000070 bf ab fb 3c 46 1c ca 3c 17 af 08 bb 6c aa 2b bd
       0.030721543 0.024671685 -0.0020856315 -0.041910574
000080 bd 78 f8 bc 1d 5a d4 3c 91 36 34 3d 80 28 e6 bc
       -0.03033101 0.025921876 0.04399735 -0.028095484
000090 c6 4e c8 3c cd f2 68 bc 3b 3f af 3c 71 3d 8f bc
       0.024451625 -0.0142180445 0.021392455 -0.017485352
0000a0 8b 33 06 bd 27 25 11 3d fb 2a f6 bc 4d ae 0b 3d
       -0.032764 0.03543582 -0.030049792 0.034101773
0000b0 92 7e 15 3d 37 ef 80 bc 61 41 99 3c b6 22 fd 3c
       0.03649766 -0.015739067 0.018707933 0.03090034
0000c0 ea 8c 18 bd 63 c0 d7 3c 48 de 34 3c 6e 66 e8 bc
       -0.03724376 0.026336854 0.011039324 -0.028369155
0000d0 ea 53 aa ba 5f b8 fe 3c 06 92 00 bd d0 11 14 bd
       -0.0012994979 0.031093774 -0.03138926 -0.0361498
0000e0 49 6b 82 3b b4 94 f0 3c 6a ac 2b 3d bb 6b 55 3c
       0.0039800745 0.029367782 0.041912474 0.013026173
0000f0 17 32 28 bd c0 c8 32 3d 0e 04 d9 bb 4c 0c b5 bc
       -0.041063394 0.04364848 -0.006622798 -0.02210059
000100 80 bd 18 bd c0 10 63 bc 52 ab b9 3c 12 f7 ef bc
       -0.037290096 -0.013858974 0.0226647 -0.029292617
000110 6e b5 05 bd 04 bb be 3c 6d c2 18 3d 47 7d 2f 3d
       -0.032643728 0.023282535 0.037294794 0.042844083
000120 03 8a 36 bc 14 f6 8c bc 6e eb 10 bd eb ab 2a 3d
       -0.011141303 -0.017207183 -0.035380773 0.04166786
000130 74 6d 51 bc d3 89 49 3c b0 c9 96 3c 7b 71 a4 bc
       -0.012782443 0.012300926 0.018406719 -0.020073643
000140 09 10 8a bc 30 20 9d 3c 7e cf f4 3c 3f 69 6c bc
       -0.01685335 0.019180387 0.029884096 -0.0144293895
000150 97 07 e1 3b 9a 38 ce bc e1 d7 f6 bb d6 f1 0e 3c
       0.00686736 -0.025173474 -0.007533059 0.00872465
000160 15 4e 04 3c 43 5f 04 3d f5 01 0f bd a3 a1 23 bd
       0.008075257 0.03231741 -0.034913976 -0.03994907
000170 9d d0 fb bc 8d 3f 74 bc 6b a8 25 bd 4b e7 2c 3b
       -0.030739123 -0.01490773 -0.04044382 0.0026382979
000180 42 6c ef bc dd 86 ba 3c d6 3a 80 3c 16 a6 0f 3d
       -0.029226426 0.022769386 0.015653055 0.0350705
000190 6b 26 d4 3c a4 9e 94 bc 0d 0d 50 3c a4 7d 98 3b
       0.025897225 -0.018142052 0.012698424 0.0046536494
0001a0 88 30 2a 3d 00 b6 51 3c 03 c0 0d bd e4 78 29 3a
       0.04155019 0.01279974 -0.034606945 0.00064648525
0001b0 af d9 07 bd 9c 49 34 3c 74 4f dc 3b da eb fb bc
       -0.033166584 0.011003878 0.0067233387 -0.030752111
0001c0 de b5 32 3d 7b b5 c0 3c a0 a3 83 3c ae 8f b2 3c
       0.043630473 0.023524037 0.016069233 0.021797027
0001d0 29 7a 83 3c 81 22 6e bb 84 c5 2c 3d be 5f f1 3c
       0.016049461 -0.0036336484 0.042180553 0.029464599
0001e0 d7 cc 11 bd 82 ac d3 3c 20 1d e3 bc 79 0a d7 bb
       -0.03559574 0.025839094 -0.027723849 -0.0065625277
0001f0 dd 48 1c bd bf 7c 33 bd ff a3 2a 3d 9b 09 32 3c
       -0.038155425 -0.04382014 0.041660305 0.010866548
000200 ef b7 d5 3c a0 61 63 bc e9 75 09 bd f8 a4 b2 3c
       0.026088683 -0.013878256 -0.033559714 0.021807179
000210 a2 fd 2c 3c d4 db 0a bc 99 9c 14 bc 45 49 f9 bb
       0.010558518 -0.008475263 -0.009070539 -0.0076076114
000220 02 e2 d7 3c 8b 4d da bc 49 c9 c1 3c cb 3e a3 bc
       0.026352886 -0.026648303 0.02365555 -0.019927403
000230 35 ca d7 bc 76 04 fd bc 0d 8f 1d 3d 48 b0 aa 3c
       -0.026341537 -0.030885916 0.038466502 0.02083601
000240 b8 3c bc bc 88 95 89 3c 7c 76 b1 3c 24 20 48 bc
       -0.022978172 0.016794935 0.021662943 -0.012214694
000250 17 54 26 bc fe 0d 6f 3c 38 7d ba bc 35 03 fe 3c
       -0.0101518845 0.014590738 -0.022764787 0.031007389
000260 3a 97 90 3c 9e f8 d6 bc b4 0d 1b bb c7 cc ae 3c
       0.017650235 -0.026241597 -0.002365929 0.02133788
000270 fd bd d3 bc 99 dc 09 bd 28 5d ba 3c ae b2 08 3d
       -0.02584743 -0.033657644 0.022749498 0.033373527
000280 e4 df 2e 3d 13 73 19 bc 28 1e 4b ba 04 46 00 bd
       0.042693987 -0.009365815 -0.0007748329 -0.031316772
000290 53 74 c3 bc dd 50 a0 3c c3 ad 80 3b 26 a2 bd 3b
       -0.023859179 0.019569809 0.003926964 0.005787152
0002a0 25 d0 95 3b f8 a1 27 3d 12 73 65 3c 60 1f 6c 3b
       0.004571932 0.04092595 0.014004486 0.0036029443
0002b0 02 ad 7f bc 32 4c e2 bb bb 5c ce bc 44 1b b3 bc
       -0.015605213 -0.006906056 -0.025190702 -0.021863587
0002c0 2e df b5 bc 9b c9 2a 3c b6 90 1c bc d5 d2 97 ba
       -0.022201147 0.010424043 -0.009555986 -0.0011583219
0002d0 f8 f6 48 bb 8e d0 93 3c 08 74 07 3d 8d df 1e 3d
       -0.0030664783 0.018043783 0.03306964 0.038787413
0002e0 c8 d4 c6 3c b2 a6 92 3c 30 62 37 bc 26 d2 f7 3c
       0.024271384 0.017901752 -0.011192843 0.030251574
0002f0 a7 57 0f bd 38 cd 1f bd c1 e2 c7 3b e5 4e c6 3c
       -0.0349957 -0.03901407 0.006100029 0.024207542
000300 b7 16 07 3c 4e 30 ca bc 56 c6 2e 3c 62 b2 09 bd
       0.008245162 -0.024681237 0.010667404 -0.033617385
000310 56 23 9d 3c 8a 84 0f bd a6 ba 31 3d f0 f2 5a 39
       0.019181889 -0.03503851 0.043390892 0.00020880601
000320 37 6d 34 bd af 86 0f b9 be 59 c9 bb 25 f3 76 bc
       -0.044049468 -0.00013687716 -0.0061447313 -0.015072619
000330 f8 be b6 bc 98 00 29 3b 21 9b 38 3a b7 fc 84 ba
       -0.022307858 0.0025787707 0.0007042159 -0.0010146116
000340 9f 2e c4 3c f5 12 a0 3b ce ac dc 3c 82 d4 22 bd
       0.023948012 0.0048850724 0.026937868 -0.039753444
000350 98 7f 09 3d 1a 16 a5 bc fd ed f8 3c e3 46 b5 ba
       0.03356895 -0.02015214 0.03038692 -0.001383033
000360 2c e6 0c 3d 55 b7 ae b9 5f 5b a4 3b f1 12 5e 3c
       0.034399197 -0.0003332446 0.005015775 0.013554321
000370 ed 36 ef bc 97 ed e1 3c 80 02 1b bc ee df 83 3c
       -0.029200995 0.027579112 -0.009461045 0.016097989
000380 11 a2 96 3a 8b 19 8b ba 5f 05 1b 3c 4c a6 9b bc
       0.0011492391 -0.0010612471 0.00946173 -0.019000195
000390 51 d6 14 bd 0b 97 22 3c 59 34 b3 3c f5 04 0e 3a
       -0.0363372 0.009923707 0.021875547 0.0005417609
0003a0 81 4c 8c bc 4f a4 21 3c fe 13 ed 3c 17 c8 25 3d
       -0.017126324 0.009865834 0.028940197 0.040474024
0003b0 dd fa a3 bc dc 21 14 bd 96 29 ad ba db 5d 85 bb
       -0.020017082 -0.036165103 -0.0013211246 -0.0040700263
0003c0 3e af 00 3d 14 63 25 3a 26 b1 29 bd 43 a5 9e bc
       0.031417124 0.0006309014 -0.041428708 -0.019365912
0003d0 e2 dd b4 3c e8 92 eb bc d8 78 53 bc bd 6f a3 bc
       0.022078458 -0.028756574 -0.012907229 -0.019950742
0003e0 ed 2f 94 3c 03 a0 14 bd ab a9 90 bc 4f 98 99 bb
       0.018089259 -0.03628541 -0.017659029 -0.004687346
0003f0 c2 4a a8 bc 1c d9 30 3d e5 01 0f 3d 2d 21 11 3d
       -0.02054346 0.0431758 0.034913916 0.03543203
