ecogrow_disease_detection/artifacts/detectors/lightweight.pt (torch, 867921 bytes, 19 tensors)

text_features f4 [18, 512]
0	0x3d0ed919	0.03487501
1	0x3d8719fe	0.065967545
2	0xbd0a55f5	-0.03377338
3	0x3db3f010	0.08786023
4	0xbd4d565a	-0.05013118
5	0xbd7989c9	-0.060922418
6	0xbcd8d096	-0.026466649
7	0x3c97a294	0.01851014
8	0x3cb2376e	0.021754947
9	0x3c93e296	0.01805238
10	0xbd29e9fb	-0.041482907
11	0xbccfd042	-0.02536786
12	0x3c27728c	0.010220181
13	0xbd8caf6b	-0.06869396
14	0x3b3a97de	0.0028471868
15	0xbc41d79e	-0.011831192
16	0x3ab69a71	0.0013931525
17	0xbbdf2a4b	-0.0068104616
18	0xbd0da261	-0.034578685
19	0x3c3305d3	0.010926682
20	0x3c8d0a62	0.017216865
21	0x3d590e4c	0.05299215
22	0xbd2a8da8	-0.041639
23	0x3d64059d	0.055669416
24	0x3d84de0b	0.06487664
25	0x3cb2ed41	0.021841647
26	0x3ce380c0	0.027771354
27	0xbcaecd5b	-0.021338155
28	0x3c69313d	0.014232931
29	0x3c66bf4d	0.014083696
30	0x3d074541	0.03302503
31	0x3c98804f	0.01861587
32	0x3c7edeec	0.015556078
33	0x3ce9e0d9	0.028549599
34	0xbc3e7591	-0.01162471
35	0xbca5f259	-0.020257162
36	0xbc54915c	-0.0129741095
37	0xbcb1697e	-0.021656748
38	0xbd201c93	-0.03908975
39	0xbc58387d	-0.013197062
40	0xbd8cd317	-0.068762
41	0x3cd2f5e5	0.025752017
42	0xbd23eeca	-0.04002265
43	0xbcb85ee8	-0.022506192
44	0x3c6c2e70	0.014415368
45	0xbd350cda	-0.04420171
46	0xb8c84136	-9.54889e-05
47	0xbc80254d	-0.015642786
48	0x3d992fa7	0.07479792
49	0x3d1e1257	0.03859171
50	0xbd370fa0	-0.044692636
51	0x3bdf4571	0.006813698
52	0xbd54635b	-0.051852565
53	0xbc5460d3	-0.012962538
54	0x3cd19ab6	0.025586467
55	0xbd62177f	-0.05519819
56	0x3d066e83	0.032820236
57	0x3d50400e	0.050842337
58	0xbb903b56	-0.0044016046
59	0xbcb7ada2	-0.022421662
60	0xbc0fd8e7	-0.008779741
61	0xbd4de1ca	-0.050264157
62	0xbcfab782	-0.030605081
63	0xbcf4f143	-0.029900199
64	0x3d1b76f6	0.037955247
65	0x3c77acd5	0.01511689
66	0xbc6c8783	-0.014436605
67	0xbc50f79f	-0.01275435
68	0x3d4be5de	0.049779765
69	0x3d82b617	0.06382387
70	0x3b3505f2	0.0027621952
71	0x3cc34cb8	0.023840293
72	0xbce607f4	-0.028079964
73	0x3b3508d7	0.0027623677
74	0xbd8a2184	-0.06744674
75	0xbd396b9e	-0.045268647
76	0xbdaf70d1	-0.0856644
77	0xbd5b9f6e	-0.05361884
78	0x3d327451	0.04356796
79	0x3c48849f	0.012238651
80	0x3d0150c7	0.031571176
81	0xbaf2791a	-0.0018499226
82	0x3c4a52c5	0.012348835
83	0xbdd58e56	-0.10427539
84	0xbc5c315c	-0.013439503
85	0x3c90684d	0.01762786
86	0xbca671b9	-0.020317899
87	0x39781786	0.00023659886
88	0x3d056118	0.0325633
89	0xbc527dcb	-0.012847374
90	0xbd1cdea7	-0.038298275
91	0x3c99c367	0.018769933
92	0x3cec8b22	0.028874937
93	0xbd96991e	-0.073534235
94	0xbccbf671	-0.024897786
95	0xbdc7423d	-0.09729431
96	0x3c4d62d0	0.012535766
97	0xbd66251d	-0.056187738
98	0x3d4611c6	0.048356794
99	0xbd2c6928	-0.042092472
100	0x3bd941c6	0.0066301553
101	0x3cc35dba	0.023848403
102	0xbc9ccf4c	-0.019141816
103	0x3c827cdb	0.015928676
104	0x3cc6af28	0.024253443
105	0xbc3a7d98	-0.011382483
106	0x3deff609	0.11716849
107	0xbcb25080	-0.021766901
108	0xbcac102a	-0.021003801
109	0x3b01b42f	0.0019791236
110	0xbcf68fba	-0.030097831
111	0xbcacc8de	-0.021091875
112	0x3be789b7	0.0070659774
113	0x3cae245b	0.02125757
114	0x3ddc53c0	0.107581615
115	0x3d5b96dc	0.053610668
116	0xbc99595d	-0.01871937
117	0xbbb7cc1f	-0.00560905
118	0xbd626b10	-0.055277884
119	0x3c221936	0.009893706
120	0xbd83d0dd	-0.06436322
121	0x3c35cd2f	0.011096283
122	0x3c1cc890	0.009569302
123	0x3d07c390	0.033145487
124	0xbcd7787d	-0.02630257
125	0x3d7926b3	0.060827922
126	0xbd1220ab	-0.035675686
127	0x3d20b4d5	0.039234955
128	0x3cd2d216	0.025734942
129	0xbdb43876	-0.087998316
130	0xbd1f9263	-0.038957965
131	0xbd324df3	-0.04353137
132	0xbbff5510	-0.0077921227
133	0xbc9c0006	-0.01904298
134	0xbd05ab84	-0.032634273
135	0x3d178eea	0.037001528
136	0x3cd77ed4	0.026305594
137	0xbd8a2034	-0.067444235
138	0x3d32fc33	0.043697547
139	0xbd1fb9ae	-0.038995437
140	0xbd8f7994	-0.07005611
141	0x3c983068	0.01857777
142	0xbac6c45b	-0.001516472
143	0x3dd286e1	0.10279632
144	0xbd04092a	-0.032235302
145	0x3cc6390d	0.024197126
146	0xbcb38ce3	-0.021917766
147	0xbc4e75a5	-0.012601291
148	0x3dd8de02	0.1058922
149	0x3c0270f3	0.0079614995
150	0xbb5e72dd	-0.0033942976
151	0xbdc60bf2	-0.09670247
152	0xbcad1ab4	-0.021130897
153	0x3d379ee0	0.04482925
154	0xbcc4cd81	-0.024023773
155	0xbd5cfbb4	-0.05395098
156	0xbd816715	-0.063184895
157	0x3d852c06	0.065025374
158	0xbd85c822	-0.06532313
159	0xbd947c83	-0.07250311
160	0xbc34f471	-0.0110446075
161	0x3d3282db	0.043581825
162	0xbcd53a5b	-0.026028803
163	0xbcba8a4f	-0.022771029
164	0x3d319198	0.04335174
165	0x3c1fe35e	0.009758798
166	0x3d6f0c6f	0.058361467
167	0xbd898e51	-0.06716598
168	0xb7cebbf3	-2.4644634e-05
169	0x3dc56158	0.096377075
170	0x3d457fa7	0.048217442
171	0x3c1eebe4	0.009699795
172	0xbd3ddd78	-0.046353787
173	0xbdaf2c33	-0.08553352
174	0xbd515980	-0.051110744
175	0x3d4c4360	0.04986894
176	0xbcf8afbd	-0.030357236
177	0x3d097089	0.033554588
178	0x3c03ac1e	0.008036641
179	0xbcad6654	-0.021166958
180	0xbd9087ca	-0.0705715
181	0x3c90d6c2	0.01768053
182	0xbd273ff5	-0.04083248
183	0xbd200276	-0.039064847
184	0x3dbf7572	0.09348573
185	0x3d0ad828	0.03389755
186	0xbd500561	-0.05078638
187	0xbd4872e2	-0.048937686
188	0xbd9be3df	-0.07611822
189	0x3d295337	0.041339125
190	0xbcc0fd64	-0.023558326
191	0x3acdf075	0.001571192
192	0x3ba6e930	0.005093716
193	0xbce8b64f	-0.028407244
194	0xbc69b2e4	-0.014263842
195	0xbcd87492	-0.026422773
196	0x3da95dac	0.082698196
197	0xbd73ff69	-0.05956975
198	0x3c8e6c85	0.01738573
199	0xbd1c056c	-0.03809111
200	0xbc88e4f9	-0.016710745
201	0x3ccf91b3	0.02533803
202	0x3c43230f	0.011910214
203	0xbd70dee0	-0.0588063
204	0xba22b6f4	-0.0006207072
205	0x3d12632b	0.035739105
206	0x3d558a97	0.052134123
207	0xbb9dfba8	-0.0048212595
208	0x3c70bf2f	0.014694019
209	0xbd8248da	-0.063615516
210	0xbce15556	-0.027506512
211	0xbc000fa4	-0.007816229
212	0xbd3ea5db	-0.04654489
213	0xbda7cbf3	-0.08193197
214	0x3c80395b	0.01565235
215	0x3c0bfa98	0.008543633
216	0xbdac63c6	-0.08417468
217	0xbd577988	-0.052606136
218	0x3c370f90	0.011173144
219	0xbce20e7e	-0.027594801
220	0x3ba881c1	0.005142421
221	0xbd131a1a	-0.035913564
222	0x3cc2ca60	0.02377814
223	0xbce6bd93	-0.028166568
224	0x3d0ba76c	0.034095213
225	0x3cdb17a6	0.026744675
226	0xbcee39fc	-0.029080383
227	0xbc437e84	-0.011932019
228	0x3d495ef4	0.04916282
229	0xbd78fb2b	-0.060786407
230	0xbd6e5469	-0.05818597
231	0x3c4f6302	0.012657883
232	0xbd1a5840	-0.037681818
233	0x3cd0aec1	0.025473954
234	0xbd96a395	-0.073554195
235	0xbb5bb8a9	-0.0033526814
236	0x3d87e1d9	0.06634874
237	0xbd297878	-0.041374654
238	0x3b75ba58	0.0037495103
239	0xbc3bb840	-0.011457503
240	0x3d5626cf	0.052283105
241	0x3b841323	0.0040306016
242	0x3d1a5f7c	0.037688717
243	0x3d1283ab	0.0357701
244	0x3d352fa2	0.04423488
245	0x3b6d5f3e	0.00362201
246	0xbd65a139	-0.056061957
247	0x3da57e43	0.08080723
248	0x3da3a0bf	0.07989644
249	0x3cd00595	0.025393287
250	0x3bf07dee	0.0073392307
251	0xbd0a691e	-0.033791654
252	0x3dd2ec37	0.10298961
253	0x3d3d22ea	0.046175875
254	0xbd9ad182	-0.07559492
255	0x3c87b30c	0.016564868

1.weight f4 [18, 512]
0	0x3e36ec79	0.17863645
1	0xbe4edd05	-0.202015
2	0x3ea43976	0.3207509
3	0x3ed2fa22	0.4120646
4	0x3e31fadf	0.17380856
5	0x3dcab54c	0.09897861
6	0x3c72387a	0.014783973
7	0xbec1653d	-0.3777255
8	0x3ea5f752	0.32415253
9	0x3e8240f2	0.25440174
10	0x3eda80bd	0.42676345
11	0x3eaeea1d	0.3416299
12	0xbe9646e6	-0.29350966
13	0xbf0356bf	-0.5130424
14	0x3e80e98f	0.2517819
15	0xbece4ce8	-0.4029305
16	0xbe19410f	-0.14966224
17	0x3e5f88bd	0.21829505
18	0xbe41c64b	-0.18923299
19	0xbf09d065	-0.5383361
20	0xbd79aa16	-0.060953222
21	0x3eda5d44	0.4264928
22	0xbeacadbc	-0.337263
23	0x3ed9038a	0.42385513
24	0xbe7128a1	-0.23550655
25	0x3eb9b30c	0.36269414
26	0x3edc2db9	0.43003634
27	0x3efdbca0	0.49557972
28	0xbe9d0f1c	-0.3067559
29	0x3eccc108	0.3999102
30	0xbd8a4adb	-0.06752559
31	0xbed9c78a	-0.4253505
32	0x3eace3b6	0.3376748
33	0x3ef7fc00	0.48434448
34	0xbe8e5be3	-0.2780448
35	0xbebaca68	-0.3648255
36	0x3e26995b	0.16269438
37	0xbeedb546	-0.46427363
38	0x3bdd8f31	0.0067614545
39	0x3eb2fd98	0.34959102
40	0x3e986ea0	0.297719
41	0xbd18ddab	-0.037320774
42	0xbef39628	-0.47575498
43	0x3ebccd90	0.36875582
44	0x3e5dff60	0.21679449
45	0x3e9a0e26	0.3008892
46	0x3ebd5e05	0.36985794
47	0x3ef5d744	0.48015797
48	0x3e582f8f	0.21111892
49	0x3ea829ea	0.32844478
50	0x3e96b992	0.29438454
51	0x3e952ee4	0.29137337
52	0x3eee4d98	0.46543574
53	0x3e9d40ad	0.30713406
54	0xbe8c8706	-0.27446765
55	0x3e83a27a	0.25709897
56	0x3e1944e4	0.14967686
57	0xbe0c4eab	-0.13701884
58	0xbe0fcf24	-0.14043862
59	0x3e8c762f	0.27433917
60	0x3ec94eec	0.39318025
61	0x3e81403b	0.25244316
62	0xbeba639f	-0.3640413
63	0x3e901121	0.28138068
64	0x3e8f14dc	0.27945602
65	0x3e63ea02	0.22257236
66	0xbf06c7a6	-0.5264839
67	0xbeeaaeb6	-0.4583642
68	0xbe7585aa	-0.2397677
69	0x3b2ee709	0.0026688
70	0x3ecb4073	0.39697608
71	0xbe94bf1e	-0.2905206
72	0x3df3ae09	0.11898429
73	0xbefb16c4	-0.49040806
74	0x3e971775	0.29510084
75	0x3ef5f03e	0.48034853
76	0xbdcc7959	-0.09984083
77	0x3e94bbe4	0.290496
78	0xbe9af927	-0.30268213
79	0xbe88fb69	-0.2675431
80	0x3e85aa86	0.26106662
81	0xbe1361e9	-0.14392819
82	0x3ed21741	0.41033366
83	0xbeaff0af	-0.34363315
84	0x3e4b6b6b	0.19865195
85	0x3ed4d58f	0.41569182
86	0x3e6b9ed9	0.23009814
87	0x3e7cd9c8	0.24692452
88	0xbf135c9b	-0.5756318
89	0xbefb498d	-0.49079552
90	0xbedb51e0	-0.42835903
91	0x3edd212f	0.4318938
92	0x3ea648e8	0.32477498
93	0x3f212865	0.6295226
94	0xbf0352c9	-0.51298195
95	0x3eae9f90	0.34106112
96	0xbe607729	-0.21920456
97	0x3ef68ac1	0.48152736
98	0xbf09a41d	-0.5376604
99	0x3eafa975	0.34308973
100	0xbf168f85	-0.58812743
101	0xbe65856c	-0.22414178
102	0x3eb2a40e	0.3489079
103	0xbeb455dc	-0.35221756
104	0xbefe1c40	-0.49630928
105	0xbe8de782	-0.2771569
106	0x3e550623	0.20803122
107	0xbce188f4	-0.027531125
108	0x3f07ec53	0.5309498
109	0xbe8e54ef	-0.27799174
110	0xbe44ebf0	-0.19230628
111	0xbed1f45b	-0.4100674
112	0x3d751820	0.05983746
113	0xbd526da3	-0.05137409
114	0x3e862e38	0.26207137
115	0xbe17ac87	-0.14811908
116	0x3e7c1e12	0.24620846
117	0x3e1a38f1	0.15060784
118	0xbeb91797	-0.3615081
119	0x3e76a748	0.2408725
120	0xbe7ecdb7	-0.24883161
121	0xbec949c8	-0.39314103
122	0x3ce942ba	0.0284742
123	0xbe03b0fd	-0.12860484
124	0xbd2950ad	-0.041336704
125	0x3e36af13	0.17840223
126	0xbdaf616b	-0.08563503
127	0xbe4d8f99	-0.2007431
128	0x3f122f40	0.5710335
129	0xbc378644	-0.011201445
130	0x3e63b7db	0.22238104
131	0x3ed5f450	0.41787958
132	0x3d738c37	0.05945989
133	0xbe914fc1	-0.2838116
134	0xbdd33314	-0.10312477
135	0xbebe5ce2	-0.3718024
136	0xbe841333	-0.25795898
137	0x3edea86b	0.43487868
138	0xbdf84e1d	-0.12124274
139	0xbcbf2787	-0.023334278
140	0xbdbb3c83	-0.09142401
141	0x3e1dd9f4	0.15415174
142	0x3e6d8480	0.23195076
143	0xbec1a374	-0.37820017
144	0xbea4b9f4	-0.3217312
145	0x3e289b8f	0.16465591
146	0x3d75f56c	0.060048506
147	0xbe5a107e	-0.21295354
148	0xbe956e1d	-0.29185572
149	0xbeb79a14	-0.3585974
150	0x3dd38704	0.103284866
151	0xbee318ce	-0.44354862
152	0x3eb208e9	0.34772423
153	0xbe92b3f3	-0.28652915
154	0xbe02d937	-0.12778173
155	0x3eb91a63	0.36152944
156	0x3ec0f5e8	0.37687612
157	0x3e356ac3	0.17716508
158	0x3e019912	0.12656048
159	0x3e85f2c4	0.26161778
160	0x3e68279c	0.2267136
161	0xbe7a5d1d	-0.24449582
162	0x3dad59a4	0.08464363
163	0x3eb1e9e0	0.34748745
164	0x3d936ff8	0.07199091
165	0xbe09a934	-0.13443452
166	0xbeb804de	-0.35941213
167	0x3ed73a1f	0.4203653
168	0x3dac4701	0.084119804
169	0xbe0dccec	-0.13847703
170	0x3ed130ac	0.40857446
171	0x3da84286	0.08215813
172	0x3ef7ed14	0.48423064
173	0xbef00968	-0.46882176
174	0x3edbcfaf	0.42931888
175	0xbe95406d	-0.29150715
176	0xbe98fad2	-0.2987886
177	0xbc4ba02f	-0.012428327
178	0x3e322197	0.17395626
179	0xbd21647d	-0.039402474
180	0x3cf66532	0.03007755
181	0x3ede12cd	0.4337372
182	0x3e2a0834	0.16604692
183	0xbe79b7cb	-0.24386518
184	0x3eb932a2	0.36171442
185	0xbe80fc0d	-0.251923
186	0xbb392226	-0.0028249114
187	0xbe616ce3	-0.22014193
188	0x3ebbc3f2	0.36672932
189	0xbdc1be0c	-0.09460077
190	0x3eeb7a48	0.4599173
191	0x3e7adace	0.2449753
192	0xbedee566	-0.43534392
193	0xbef878e2	-0.48529726
194	0x3f0619a5	0.5238288
195	0x3e948f17	0.2901542
196	0x3d890c6d	0.06691823
197	0x3db991aa	0.09060986
198	0x3dd3c1a0	0.103396654
199	0xbec46065	-0.38354793
200	0xbd72d616	-0.0592862
201	0xbe8a78b4	-0.27045214
202	0xbbc53959	-0.0060187993
203	0x3ee5e8d2	0.4490419
204	0x3e6b37f4	0.22970563
205	0x3e4a65be	0.19765374
206	0xbea9f9f8	-0.33198524
207	0x3ed0671a	0.4070366
208	0xbe85feeb	-0.2617105
209	0x3e1d6584	0.15370756
210	0x3d0567d4	0.03256972
211	0x3ea26241	0.31715587
212	0xbe6dcd1e	-0.23222777
213	0x3c0d7894	0.008634705
214	0x3e727af4	0.23679715
215	0x3e6e5aaa	0.23276773
216	0x3eb6ffd5	0.3574206
217	0xbdd2543d	-0.102699734
218	0xbeec1f93	-0.4611784
219	0x3bc28b2b	0.0059370003
220	0xbefbc02d	-0.49170056
221	0xbe199703	-0.14999013
222	0x3eba7fb5	0.36425558
223	0x3e274990	0.16336656
224	0x3ecb8c0c	0.39755285
225	0x3e9d6284	0.30739224
226	0x3cb0ea42	0.021596078
227	0xbd5250cc	-0.051346585
228	0x3ea8dd3b	0.32981285
229	0xbed3b45c	-0.4134854
230	0xbef8e128	-0.4860928
231	0xbdd84080	-0.105591774
232	0xbd2bac2e	-0.04191225
233	0xbea49994	-0.3214842
234	0x3e1171ae	0.14203522
235	0xbddb7aa0	-0.10716748
236	0xbe859930	-0.26093435
237	0xbebce3a4	-0.36892426
238	0xbe7114de	-0.23543116
239	0x3ca63687	0.020289673
240	0xbed28972	-0.41120487
241	0xbedb09bf	-0.42780873
242	0xbe280fe6	-0.16412315
243	0x3e52b8af	0.20578264
244	0xbec35ca3	-0.38156614
245	0x3e3ae1b9	0.18250169
246	0xbedb5383	-0.42837152
247	0x3eed929d	0.4640092
248	0x3e96ed64	0.2947799
249	0x3e385f96	0.18005213
250	0xbeae4f2d	-0.3404478
251	0xbeb87606	-0.36027545
252	0xbd634d29	-0.055493508
253	0x3da85ea4	0.08221176
254	0x3ebf3b58	0.37349963
255	0x3f008e03	0.5021669

1.bias f4 [18]
0	0xbdcc93dc	-0.099891394
1	0x3e57b329	0.21064438
2	0x3e120192	0.14258412
3	0xbc95c1ed	-0.018280948
4	0xbd7d34ff	-0.06181812
5	0xbe3cbc63	-0.18431239
6	0xbe3dd5ec	-0.18538636
7	0xbcdf9e52	-0.027297173
8	0xbe599331	-0.21247555
9	0xbe5c94d7	-0.21541153
10	0xbe278849	-0.16360582
11	0x3daac4e1	0.08338333
12	0xbd0328e6	-0.032021426
13	0x3b596180	0.0033169687
14	0xbdca8f2e	-0.098905906
15	0xbe498243	-0.19678597
16	0xbdecf9c0	-0.115710735
17	0x3d029cec	0.031887934

model.trunk.stages.3.blocks.0.token_mixer.qkv.lora_A.default.weight f4 [16, 512]
0	0x3d2fd674	0.042929128
1	0xbd0cf289	-0.034410987
2	0xbc8a32e0	-0.016869962
3	0xbd2af116	-0.041733824
4	0x3c05d537	0.00816851
5	0x3b602ac9	0.003420519
6	0xbd8d9387	-0.06912904
7	0xbc45b6c0	-0.012067497
8	0x3d989018	0.07449359
9	0xbc07afbd	-0.008281645
10	0x3d02fdf1	0.03198046
11	0xbc9c8810	-0.019107848
12	0xbc61446e	-0.013749225
13	0x3d60c4c5	0.054875154
14	0x3c8905b5	0.016726354
15	0x3c2c1866	0.010503864
16	0xbc959559	-0.018259691
17	0xbd920e00	-0.071315765
18	0x3c8048be	0.015659686
19	0x3da19116	0.07889001
20	0x3db7579e	0.089522585
21	0xbcec0839	-0.028812515
22	0x3d95be2e	0.073116645
23	0x3cd9cd2c	0.026587091
24	0xbdbb9b58	-0.09160489
25	0xbcbc7cdc	-0.023008756
26	0x3e156972	0.14591005
27	0x3d26d764	0.040732756
28	0x3c04c6fe	0.008104084
29	0xbd808998	-0.06276244
30	0x3b8b9d89	0.004260723
31	0x3ce00362	0.027345363
32	0x3da37df9	0.07983012
33	0x3cd91703	0.02650023
34	0x3dcc26f0	0.09968364
35	0x3d9ea231	0.07745779
36	0xbca4329b	-0.020043662
37	0x3cb4d1aa	0.022072632
38	0xbac24ef3	-0.0014824554
39	0xbd8bd256	-0.06827228
40	0x3dcd8e3b	0.10036894
41	0xbc04b374	-0.008099426
42	0x3ccf2271	0.025284978
43	0xbc14612f	-0.0090563735
44	0xbcb7fbbb	-0.022458902
45	0x3d0085d0	0.031377614
46	0xbc8321cf	-0.016007332
47	0xbc8e8477	-0.017397149
48	0x3d47dac0	0.0487926
49	0xbd4aaed4	-0.049483135
50	0xbbf89455	-0.007586042
51	0xbd1c7be5	-0.038204093
52	0x3d52917e	0.051408283
53	0xbda57d51	-0.08080543
54	0xbbfeff2b	-0.0077818832
55	0xbafc14c2	-0.001923226
56	0xbd322585	-0.043492813
57	0x3c33f32a	0.010983268
58	0x3d6acc54	0.05732377
59	0x3d13e82e	0.036110096
60	0x3cf7c0f2	0.03024337
61	0xbb0e02d4	-0.0021669166
62	0xbd629aa4	-0.055323258
63	0x3cecfa36	0.028927904
64	0x3c8e468f	0.01736763
65	0xbd95e20c	-0.07318506
66	0xbc613710	-0.013746038
67	0x3cdf70f9	0.02727555
68	0xbd0c349f	-0.03422987
69	0x3d28fd2f	0.04125708
70	0x3d48f9bf	0.0490663
71	0xbb48f02e	-0.0030660736
72	0x3c81a70c	0.015826724
73	0x3bae7b09	0.0053247255
74	0xbb60f0be	-0.003432318
75	0x3d9d4abb	0.07680269
76	0xbb68873b	-0.0035480994
77	0x3ccfc5e9	0.025362926
78	0x3d97e3be	0.07416485
79	0x3caaeac1	0.020863893
80	0x3d463d8f	0.04839855
81	0xbd0806e8	-0.03320971
82	0x3c23aaf3	0.009989488
83	0xbbcc4683	-0.0062339916
84	0x3d0c2637	0.034216132
85	0xbceca81d	-0.028888756
86	0x3c2c221c	0.010506179
87	0xbc109eac	-0.008826893
88	0xbc0b8121	-0.008514673
89	0xbd40b713	-0.047049593
90	0xbd6eb9f5	-0.05828281
91	0x3d13a7ae	0.036048584
92	0xbd650686	-0.055914424
93	0x3a88e8a4	0.0010445309
94	0x3d97d2ba	0.0741324
95	0xbc5bc76f	-0.013414248
96	0xbd601cd9	-0.05471501
97	0x3b5d2e46	0.0033749505
98	0xbc9ec0e5	-0.019379089
99	0x3b6409e3	0.0034795932
100	0x3d58b715	0.052908976
101	0x3b2f24b4	0.0026724758
102	0xbd26f919	-0.0407649
103	0x3d5e472a	0.054267086
104	0xbd87a686	-0.06623559
105	0xbc510110	-0.012756601
106	0xbd5c7cd4	-0.053829983
107	0xbd02dffa	-0.031951882
108	0xbda5f7be	-0.08103894
109	0x3d4eb471	0.05046505
110	0x3c7090cf	0.014682963
111	0x3d173f4f	0.03692561
112	0x3d7d213d	0.061799277
113	0xbd3ac90c	-0.04560189
114	0xbd0ef02c	-0.034897014
115	0xbc9c2286	-0.01905943
116	0x3ddae3cf	0.10687982
117	0x3c07be6f	0.008285149
118	0x3da9e735	0.08296052
119	0xbc76ba66	-0.015059089
120	0xbd15c357	-0.036563244
121	0xbb254bb2	-0.002522212
122	0xbd00a901	-0.031411175
123	0x3c85ca0d	0.016331697
124	0xbd813d79	-0.06310553
125	0x3c00b0b9	0.007854634
126	0x3d567b05	0.052363414
127	0x3c1797a6	0.009252464
128	0xbd931c4f	-0.07183134
129	0xbc8abba1	-0.016935172
130	0xbc41800c	-0.011810314
131	0xbdb7d7c1	-0.08976699
132	0x3d985bcf	0.07439386
133	0x3cb061c1	0.021530988
134	0xbd26878e	-0.04065662
135	0xba8f0e46	-0.0010914288
136	0x3caf6295	0.021409312
137	0x3c5bd130	0.013416573
138	0x3cf4ed26	0.029898237
139	0x3d78622f	0.06064051
140	0xbd24efac	-0.04026763
141	0xbc9f5545	-0.01944984
142	0xbd9c4ad5	-0.076314606
143	0x3d641e25	0.05569281
144	0x3d793400	0.060840607
145	0xbb60f11d	-0.0034323402
146	0x3c302cae	0.01075284
147	0xbd9ec0e0	-0.07751632
148	0xbd242735	-0.040076453
149	0xbce02f14	-0.027366199
150	0xbe03930d	-0.12849064
151	0x3d860b73	0.065451525
152	0x3d116699	0.035498235
153	0xbd852fa8	-0.0650323
154	0x3d821891	0.06352342
155	0x3d64f3b4	0.055896476
156	0x3e1322e8	0.14368784
157	0xbd5ebb32	-0.054377742
158	0x3d846bf1	0.06465901
159	0xbc765f99	-0.015037441
160	0x3de40f58	0.11135739
161	0x3d846db7	0.06466239
162	0xbd7beca9	-0.061504994
163	0x3d2f9835	0.042869765
164	0x3d607659	0.054800365
165	0xbc4b8c9c	-0.012423661
166	0x3d08f69d	0.033438314
167	0x3ccd802e	0.025085535
168	0x3b4ee4e9	0.0031569547
169	0x3d277f54	0.040892914
170	0x3b6f1efa	0.003648697
171	0x3d3dee03	0.046369564
172	0x3c56b9dc	0.013105836
173	0x3d3dfdb6	0.046384536
174	0xbd05b317	-0.032641497
175	0xbcaffe12	-0.021483455
176	0x3d160509	0.036625896
177	0xbaa4ee1e	-0.0012583171
178	0x3d4a7b49	0.04943398
179	0xbabaa3d8	-0.0014239503
180	0x3d9c18ca	0.07621916
181	0xbd47d84e	-0.04879027
182	0x3d12846c	0.03577082
183	0xbbbe0a4a	-0.0057995664
184	0x3c964e29	0.018347817
185	0x3c7ca743	0.015420738
186	0x3d951d7a	0.07281013
187	0x3d55483c	0.05207084
188	0xbc5eb705	-0.01359344
189	0x3d5d6e32	0.05406017
190	0x3cac7971	0.021054002
191	0x3d0d1195	0.034440596
192	0xbd27060b	-0.040777247
193	0x3cdd841f	0.02704054
194	0x3dd4c023	0.1038821
195	0xbd87baa7	-0.06627398
196	0x3c3a00b6	0.011352709
197	0xbda2a0cb	-0.07940825
198	0x3cb6e9e3	0.022328323
199	0xbda64b15	-0.081197895
200	0x3d571952	0.05251438
201	0x3cb2b3a8	0.021814182
202	0xbb657f3d	-0.0035018467
203	0xbd379de5	-0.044828314
204	0x3cf6a87b	0.030109635
205	0x3d878e6b	0.06618961
206	0x3cd1a4d2	0.025591288
207	0xbbf181b4	-0.007370198
208	0xbdae8400	-0.08521271
209	0x3cdf76ee	0.02727839
210	0xbda96b0d	-0.082723714
211	0xbccb701a	-0.024833728
212	0xbd38551a	-0.045003034
213	0xbc9b7799	-0.018977927
214	0x3dd57666	0.10422973
215	0x3db62237	0.08893245
216	0x3cf4c1df	0.029877601
217	0x3b8135b8	0.0039431714
218	0xbcd258da	-0.025677133
219	0x3d786c15	0.06064995
220	0x3b0997e4	0.0020995075
221	0x3d22e881	0.039772514
222	0xbc3f8f6b	-0.011691908
223	0x3c3de766	0.011590814
224	0xbd00308c	-0.031296298
225	0x3ce99fe2	0.02851862
226	0x3d2430e1	0.040085677
227	0xbcfb19e1	-0.030651988
228	0xbd0554d5	-0.032551605
229	0x3d39859f	0.045293447
230	0x3be93849	0.0071173054
231	0xbd7240d9	-0.059143875
232	0xbd25a2d8	-0.040438503
233	0xbb8d9989	-0.0043212813
234	0xbd111573	-0.035420846
235	0xbab31299	-0.0013662159
236	0x3ba62355	0.00507013
237	0xbcdb0784	-0.026736982
238	0x3d71f72a	0.059073605
239	0xbd087a53	-0.033319782
240	0xbbb2d194	-0.0054571126
241	0xbc939c7b	-0.018018952
242	0xbca4c5f1	-0.020113917
243	0x3c6fdfd6	0.014640769
244	0x3d58b382	0.052905567
245	0xbd6f4a6a	-0.058420576
246	0xbd1473a6	-0.036243103
247	0x3d9c1de1	0.076228864
248	0x3ce138aa	0.02749284
249	0xb997e818	-0.00028973888
250	0xbdbc29bd	-0.091876484
251	0x3cf5e3d5	0.030015865
252	0x3cf0e36d	0.02940532
253	0x3dbdc6e0	0.09266448
254	0xbd04ba1c	-0.03240405
255	0x3d887b84	0.06664184

model.trunk.stages.3.blocks.0.token_mixer.qkv.lora_B.default.weight f4 [1536, 16]
0	0x3cd22b15	0.025655309
1	0xbd2fc8c1	-0.042916063
2	0x3c4de336	0.012566378
3	0xbb2e0ec2	-0.002655909
4	0xbc922336	-0.017839056
5	0xbca9c448	-0.020723477
6	0x3d54ddba	0.051969267
7	0xbc9a1007	-0.01880647
8	0x3c7e65a8	0.015527166
9	0x3cdcd37d	0.026956314
10	0x3cc84e10	0.024451286
11	0x3cba4185	0.02273632
12	0xbd408158	-0.04699835
13	0x3cadfbd5	0.021238247
14	0xbbb19d76	-0.005420382
15	0x3c128dfe	0.008944986
16	0xbd69f708	-0.057120353
17	0x3c17be8f	0.009261741
18	0x3c06e5ba	0.008233482
19	0x3cadbfac	0.02120956
20	0x3d3f05c1	0.046636347
21	0xbd253b4e	-0.04033976
22	0x3cbc3d3c	0.022978418
23	0xbce4eaeb	-0.027944049
24	0x3d821a8c	0.0635272
25	0xbd02d424	-0.031940594
26	0xbd4ca53e	-0.049962275
27	0xbd518c7d	-0.05115937
28	0xbd09e8aa	-0.03366915
29	0x3c2136be	0.009839712
30	0xbb63feef	-0.0034789403
31	0x3cf458f5	0.029827574
32	0xbcd017e0	-0.02540201
33	0xbc84b056	-0.016197365
34	0x3b662c86	0.0035121753
35	0x3ceba56d	0.028765405
36	0xbd5ea4a0	-0.054356217
37	0xbcd0bf2f	-0.025481788
38	0xbd4b5197	-0.049638357
39	0x3a910d10	0.0011066515
40	0x3d73621f	0.059419747
41	0x3d1652ff	0.036700245
42	0xbd338cb7	-0.043835368
43	0xbca51087	-0.020149482
44	0x3a9d2160	0.0011988096
45	0xbd672489	-0.056431327
46	0xbd5fe929	-0.05466572
47	0xbc3794f6	-0.011204949
48	0x3d302d6e	0.043012075
49	0x3a3b333a	0.0007141117
50	0xbb961d1b	-0.0045811064
51	0xbc9f4ac5	-0.019444833
52	0xbb7aa45e	-0.0038244943
53	0x3c853c69	0.016264157
54	0xbca14469	-0.01968594
55	0x3cf8c156	0.030365627
56	0xbc7d9f92	-0.015479939
57	0x3bc2a37f	0.0059399004
58	0xbc1bf29e	-0.009518294
59	0x3c6f08f3	0.014589536
60	0x3d4ac378	0.04950282
61	0xbc8d4b1f	-0.017247735
62	0x3ae9e146	0.0017843626
63	0x3c00baa9	0.007857003
64	0x3cdc656a	0.026903827
65	0x3cab0c62	0.020879928
66	0xbc4f911e	-0.012668876
67	0x3cd975bd	0.0265454
68	0xbce7dcbf	-0.028303502
69	0x3d9da771	0.076979525
70	0xbccd9384	-0.025094755
71	0x3cea8571	0.028628083
72	0xbccd9e86	-0.025100004
73	0xba89d7bf	-0.0010516568
74	0x3bc20d2d	0.005921981
75	0x3ba15696	0.004923652
76	0x3d03d8eb	0.03218929
77	0xbcce3317	-0.025170846
78	0x3cb25aa6	0.02177174
79	0xbd1dd2d1	-0.03853113
80	0x3d1e262d	0.038610626
81	0xbca493f6	-0.020090085
82	0xbd676bd8	-0.056499332
83	0x3ccd3cfe	0.025053497
84	0xbd1477b8	-0.036246985
85	0xbcbb1f41	-0.022842051
86	0x3ce3d836	0.027813058
87	0xbc70051e	-0.0146496575
88	0xbd61997e	-0.055078022
89	0x3cb8f66f	0.022578446
90	0xbc4e6e37	-0.012599519
91	0x3d6f9ecd	0.058501054
92	0x3ca154c0	0.019693732
93	0x3cc3c6d1	0.023898514
94	0x3ca44df9	0.020056712
95	0x3c3900a1	0.011291654
96	0xbc63ee41	-0.013911785
97	0xbc01e849	-0.007928916
98	0x3d3b1536	0.045674525
99	0xbccc948d	-0.024973178
100	0x3aa343aa	0.0012456079
101	0x3a369c96	0.0006966082
102	0xbd20c9b9	-0.039254878
103	0x3c296896	0.010339877
104	0x3c37bf25	0.011215006
105	0x3ce93366	0.028466891
106	0xbbc754de	-0.006083115
107	0xbd236004	-0.03988649
108	0x3c1192df	0.008885114
109	0xbd7af24e	-0.061266236
110	0xbcb7722e	-0.022393312
111	0x3c3ed8e9	0.011648395
112	0x38442a68	4.6769535e-05
113	0x3cb8e115	0.022568265
114	0xbc820f25	-0.015876362
115	0x3cde2aee	0.02712008
116	0x3c81df3e	0.01585352
117	0x3cb21bbc	0.02174174
118	0xbd2edaf8	-0.042689294
119	0xbc4c3788	-0.012464412
120	0xbc26c5b8	-0.010178976
121	0x3c9afbae	0.018918838
122	0xb9b6a730	-0.0003483831
123	0xbcd290fc	-0.0257039
124	0x3d190bd3	0.037364792
125	0xbbbd47dc	-0.0057763886
126	0xbcb64179	-0.022248017
127	0xbcc3bb32	-0.023892973
128	0x3c8eebbe	0.017446395
129	0x3d04cfe7	0.032424834
130	0xbbebd20b	-0.00719667
131	0xbcb96525	-0.022631237
132	0x3c040aad	0.008059186
133	0x3c947545	0.018122325
134	0x3cb3d7e1	0.021953525
135	0xbc274d7c	-0.010211345
136	0xbd051a9e	-0.032496087
137	0x3cb6229c	0.0222333
138	0x3cf40daf	0.029791681
139	0xbc23aad4	-0.009989459
140	0xbc1d43c8	-0.00959868
141	0x3b6b8dc7	0.003594266
142	0x3c7631fe	0.0150265675
143	0xbd04dd2d	-0.032437492
144	0x3d969089	0.07351787
145	0xbd4ccb17	-0.04999837
146	0x3b558dc4	0.003258572
147	0xbe0c74db	-0.13716452
148	0xbcd87430	-0.02642259
149	0x3cc2ebae	0.023794021
150	0xbca33898	-0.019924447
151	0x3d221964	0.039574996
152	0xbd0536df	-0.032523032
153	0x3cc2d0f9	0.023781287
154	0x3d3dfe87	0.046385314
155	0x3cd6386c	0.02614995
156	0x3c0c2b3e	0.008555232
157	0x3d24eb2d	0.040263344
158	0x3d15d54d	0.036580373
159	0xbc9cbf55	-0.019134203
160	0x3d03fed7	0.032225456
161	0xbca68826	-0.020328593
162	0x3b57e5d3	0.0032943382
163	0xbbc24c90	-0.005929537
164	0xbd2f050a	-0.042729415
165	0xbb59ec88	-0.0033252556
166	0x3d20955d	0.039204944
167	0xbb172dd3	-0.0023068085
168	0xbd1dc4fc	-0.038517937
169	0x3ce38540	0.0277735
170	0x3d12d95e	0.03585183
171	0x3ca2b9b0	0.019863933
172	0x3d02695a	0.031838752
173	0xba8bf3d2	-0.0010677523
174	0xbcbb941f	-0.022897778
175	0xbcb81363	-0.022470182
176	0xbcb059e0	-0.02152723
177	0xbc8a0508	-0.016848102
178	0x3ca508c4	0.020145781
179	0x3c9e1b8a	0.019300241
180	0xbabf1efa	-0.0014581375
181	0xbc43f10f	-0.011959328
182	0xbca365d8	-0.019946024
183	0x3d09d4a8	0.03365007
184	0x3d860e70	0.065457225
185	0x3b8ad784	0.0042371172
186	0xbd23afa0	-0.03996241
187	0xbc7336b2	-0.014844583
188	0xbccbad3a	-0.024862874
189	0x3c52cfae	0.0128668975
190	0xba841c87	-0.0010079303
191	0xbd1082dc	-0.035281047
192	0xbcfb3a44	-0.030667432
193	0x3ca48ece	0.020087626
194	0xbb8ce205	-0.0042994046
195	0x3c336f35	0.010951807
196	0x3d135de0	0.035978198
197	0xbc38f5d3	-0.011289078
198	0x3b8f6306	0.004375818
199	0x3b940ed3	0.0045183687
200	0x3cab8a96	0.020940106
201	0xbc625b71	-0.013815747
202	0xbce22e15	-0.027609864
203	0x3c1e79f4	0.009672631
204	0xbbbf5309	-0.005838756
205	0x3c82dd8d	0.015974784
206	0xbb753bca	-0.003741967
207	0x3c0a56cb	0.008443545
208	0xbd0c7df8	-0.03429982
209	0x3d87a9d5	0.0662419
210	0xbd12a802	-0.035804756
211	0x3d78fafd	0.060786236
212	0xbcaadfcf	-0.020858673
213	0x3cebcff7	0.028785689
214	0x3d759a68	0.059961706
215	0x3c2a31cf	0.010387852
216	0xbca4a891	-0.02009991
217	0xbcab5d24	-0.020918436
218	0xbd88d346	-0.06680922
219	0x3b1c0402	0.00238061
220	0x3c5b552e	0.013387008
221	0xbb13d376	-0.002255646
222	0xbc2121de	-0.009834735
223	0xbc42af83	-0.011882666
224	0x3bfbe32b	0.0076869926
225	0xbc57aab7	-0.01316326
226	0xbc58b3a1	-0.013226421
227	0xbb78859a	-0.003792143
228	0x3b9ceaf0	0.004788749
229	0x3ab561ce	0.0013838352
230	0x3daf928b	0.08572873
231	0xbc865497	-0.016397757
232	0xbc154b12	-0.009112136
233	0xbc7c93e2	-0.015416117
234	0xbd1d509f	-0.038406964
235	0x3b306eb8	0.0026921462
236	0x3b299a23	0.0025879226
237	0x3d1884b9	0.03723595
238	0xbc14e963	-0.009088847
239	0x3c88c220	0.016694129
240	0x3d047df2	0.032346673
241	0xba8adade	-0.0010593792
242	0x3bbbfe53	0.005737105
243	0x3c22524b	0.0099073155
244	0xbd4a68cd	-0.049416352
245	0x3be99050	0.007127799
246	0xbc841e3a	-0.016127694
247	0xbcb13723	-0.021632737
248	0xbd3f6b92	-0.046733446
249	0x3d223da2	0.03960956
250	0x3ca7c674	0.020480372
251	0x3d801a7e	0.06255053
252	0x3bc99a77	0.006152447
253	0x3c59c4b2	0.013291525
254	0xbcd8cdcd	-0.026465321
255	0xbd85c7b9	-0.06532235

model.trunk.stages.3.blocks.0.token_mixer.proj.lora_A.default.weight f4 [16, 512]
0	0xbcdb09c3	-0.026738053
1	0xbb661b54	-0.0035111504
2	0x3ce5158f	0.027964382
3	0x3c596d72	0.013270723
4	0x3d01ab2c	0.031657383
5	0x3d586cf3	0.052838277
6	0x3d09aa79	0.03360984
7	0x3c9edbf1	0.019391986
8	0x3c1babc0	0.009501398
9	0xbd59fe43	-0.053221
10	0x3d029172	0.03187699
11	0xbcb760e9	-0.022385078
12	0xbc0d406a	-0.008621315
13	0x3d6fd30c	0.05855088
14	0xbd0fb6ab	-0.035086315
15	0x3c8045c3	0.015658265
16	0xbc093a39	-0.008375698
17	0xbd43f204	-0.047838226
18	0xbc0263db	-0.007958378
19	0xbd5fb10e	-0.054612212
20	0x3d68367e	0.056692593
21	0xbd285eee	-0.041106157
22	0xbc500914	-0.012697477
23	0x3c92d6e9	0.017924743
24	0xbc9aff0a	-0.01892044
25	0x3b670172	0.0035248664
26	0x3c65e566	0.014031744
27	0xbcc93277	-0.024560196
28	0xbd5e2c1f	-0.054241296
29	0xbd5ecfd1	-0.054397408
30	0xbd10b6c4	-0.03533055
31	0x3bbd4a7d	0.005776702
32	0xbd70c75c	-0.058783874
33	0x3c0555ce	0.008138133
34	0x3d873172	0.06601228
35	0xb9a5d032	-0.0003162637
36	0x3d7b7f36	0.061400615
37	0x3d2558d1	0.040367905
38	0xbc0beea6	-0.008540785
39	0x3d522cc7	0.051312234
40	0x3d445180	0.047929287
41	0xbcf883bb	-0.030336251
42	0xbd37f4b3	-0.044911098
43	0xbc89d95e	-0.016827282
44	0xbbe8685e	-0.0070925197
45	0xbc6cb7c2	-0.014448108
46	0x3c62b601	0.013837338
47	0x3d8efd6a	0.06981929
48	0x3b8f7bdf	0.0043787803
49	0x3d93bf90	0.07214272
50	0x3d69595c	0.056969985
51	0xbb6d45b3	-0.0036204874
52	0x3d2a3f70	0.041564405
53	0xbd1bc941	-0.038033728
54	0x3d09ce38	0.03364393
55	0xbcf49dff	-0.029860495
56	0x3cbc1db2	0.022963379
57	0x3d2b6183	0.04184104
58	0x3cf745b6	0.030184608
59	0x3d769ac7	0.0602062
60	0xbcd2b400	-0.025720596
61	0x3da535e5	0.0806692
62	0x3d237305	0.039904613
63	0xbd938515	-0.07203118
64	0x3c3d2310	0.011544004
65	0x3c348c8c	0.011019837
66	0xbc95e5bc	-0.018298022
67	0xbd22f390	-0.03978306
68	0x3d5ed01c	0.054397687
69	0xbd3e38d7	-0.046440925
70	0x3cc77f67	0.024352742
71	0xbd2e8a28	-0.042612225
72	0x3c97dea8	0.018538788
73	0x3c767b71	0.015044079
74	0x3c75551b	0.014973904
75	0xba8d2c7d	-0.0010770705
76	0x3d253433	0.040332984
77	0xbd23edc2	-0.040021665
78	0x3d398eaa	0.04530207
79	0xb990a2e2	-0.00027587177
80	0xbcb5cd47	-0.02219261
81	0xbcfd29e0	-0.030903757
82	0xbd2b63ef	-0.04184335
83	0x3c821bb8	0.015882358
84	0x3d6e1e07	0.058134105
85	0xbcff0308	-0.031129375
86	0xbc3d5cf3	-0.011557805
87	0x3d2d1a64	0.042261496
88	0x3d499266	0.049211882
89	0x3d09b5d1	0.03362066
90	0x3d2ba568	0.04190579
91	0xbd99a311	-0.075018056
92	0x3cb90104	0.022583492
93	0xbbd7b7ad	-0.006583175
94	0xbd8dd4df	-0.069253676
95	0x3ceed1c6	0.029152762
96	0xbd4b1884	-0.049583927
97	0xbd847850	-0.0646826
98	0x3d141662	0.03615416
99	0xbc73425e	-0.014847366
100	0xbca977e2	-0.020687047
101	0xbcf63a52	-0.030057106
102	0xbd75f3f5	-0.06004711
103	0x3acf2b80	0.0015805811
104	0xbccbb004	-0.024864204
105	0x3d11c629	0.03558937
106	0x3d1c62e1	0.038180236
107	0xbd2da56f	-0.042394098
108	0xbc64cd7e	-0.013965009
109	0xbd9a8edd	-0.0754678
110	0x3cba7fed	0.022766078
111	0xbc1fb762	-0.009748312
112	0x3c85f876	0.016353827
113	0x3ca901d5	0.020630756
114	0x3be7dd9a	0.0070759775
115	0x3b90c865	0.00441842
116	0x3d18754f	0.03722125
117	0xbd7a0bec	-0.061046526
118	0x3c4e06ee	0.012574894
119	0xbd334e37	-0.043775763
120	0xbd21363e	-0.03935837
121	0x3d8846d7	0.06654137
122	0x3d8423cb	0.064521395
123	0x3d1b85f5	0.03796955
124	0x39bba056	0.0003578688
125	0x3d57723a	0.05259917
126	0xbd80e4c5	-0.06293634
127	0xbcabe919	-0.020985173
128	0xbd3ca77b	-0.04605816
129	0x3c54483c	0.012956675
130	0x3c62ab43	0.013834777
131	0xbcdaeb40	-0.026723504
132	0xbca8d66c	-0.020610057
133	0x3c824701	0.015902998
134	0xbc0700b2	-0.008239912
135	0x3d373a31	0.04473323
136	0x3d52311d	0.05131637
137	0x3bcbacc1	0.006215662
138	0x3cadbeac	0.021209083
139	0x3ce4b558	0.027918503
140	0xbc502ba0	-0.0127057135
141	0x3d22c7f0	0.039741457
142	0xbd8d6357	-0.06903713
143	0xbd0f4823	-0.034980904
144	0x3b90c841	0.0044184034
145	0xbc507abc	-0.012724575
146	0x3d06cdeb	0.032911222
147	0x3d17fc15	0.03710564
148	0x3d31b18b	0.04338221
149	0x3c34c834	0.01103406
150	0xbd18d2c3	-0.037310373
151	0xbd894d2f	-0.06704175
152	0x3df087ce	0.11744653
153	0x3cac99b6	0.021069389
154	0x3bf5d7e2	0.007502542
155	0x3c1e8df6	0.009677401
156	0x3d72bec5	0.059263963
157	0xbb6a2396	-0.0035726777
158	0xbd43d057	-0.04780611
159	0x3b675702	0.0035299663
160	0x3d748f2b	0.059706848
161	0x3cb46a93	0.022023475
162	0x3d6d1523	0.057881486
163	0x3c630eb5	0.013858487
164	0x3d1a4dbb	0.037671786
165	0xbca59a71	-0.020215245
166	0xbc68adcb	-0.014201592
167	0x3b887608	0.004164461
168	0xbb6fcea4	-0.0036591673
169	0xbd49a5df	-0.049230453
170	0xbd444f74	-0.047927335
171	0xbc782bdf	-0.015147178
172	0xbcee2599	-0.029070662
173	0xbd8f6938	-0.07002491
174	0xbd7214fd	-0.059102047
175	0xbd0a650f	-0.033787783
176	0x3b22380a	0.002475264
177	0xbd3e3f4f	-0.046447095
178	0x3d449eca	0.048002996
179	0xbb3a458c	-0.00284228
180	0xbd776ab0	-0.06040448
181	0xbcbd75c5	-0.023127446
182	0x3d4c05ea	0.049810328
183	0xbd0eebd8	-0.034892887
184	0xbd98b0c0	-0.074555874
185	0xbc511601	-0.012761594
186	0xbd029f2a	-0.031890072
187	0xbd623835	-0.055229384
188	0xbd42d1b5	-0.047563273
189	0xbc8291c4	-0.015938647
190	0x3becc0b2	0.0072251195
191	0x3c3b52fc	0.011433359
192	0xbd0e05c3	-0.034673464
193	0x3cedc9f0	0.029026955
194	0x3d7aee4f	0.061262425
195	0xbb7a5aee	-0.003820117
196	0x3cb4043e	0.02197468
197	0x3c473d2d	0.012160582
198	0xbd0846e2	-0.033270724
199	0xbd471810	-0.048606932
200	0x3d1128ae	0.035439186
201	0x3d45884b	0.048225682
202	0x3e13a929	0.14419998
203	0xbc8678ae	-0.016414966
204	0xbd911839	-0.07084698
205	0x3d4b580d	0.04964452
206	0x3ccd65c8	0.025072947
207	0x3c82a973	0.01594994
208	0x3cc9a033	0.024612522
209	0x3d46613d	0.048432577
210	0xbc89eab1	-0.016835542
211	0x3d2feaad	0.042948414
212	0x3c041411	0.008061425
213	0x3aba2f6c	0.0014204807
214	0x3d814790	0.063124776
215	0x3c45b09c	0.012066033
216	0xbc92e55a	-0.017931629
217	0x3db34993	0.087542675
218	0xbd980b51	-0.074240334
219	0x3cbafd73	0.022825932
220	0xbdde736b	-0.10861858
221	0xbd91e972	-0.07124604
222	0x3c23a147	0.009987182
223	0x3b37c2bc	0.0028039655
224	0x3c9103e8	0.017702058
225	0x3cba36f3	0.02273128
226	0x3d5b4a91	0.05353791
227	0xbd5b7200	-0.053575516
228	0xbaa16780	-0.0012314171
229	0x3d8c1b4a	0.068411425
230	0xbc9bf5fc	-0.019038193
231	0x3d48c265	0.049013514
232	0xbca6c429	-0.020357208
233	0xbd719eb2	-0.058989234
234	0xbc214339	-0.009842687
235	0xbd86df68	-0.0658558
236	0x3d1c065f	0.038092013
237	0xbc9c3095	-0.019066134
238	0xbd352043	-0.04422022
239	0xbdc3a63f	-0.09553193
240	0xbbb25964	-0.005442785
241	0x3d0a3bbb	0.03374837
242	0xbb6afd60	-0.003585659
243	0xbc00bd78	-0.007857673
244	0xbccaccba	-0.024755824
245	0x39b49aaa	0.0003444751
246	0x3d818f20	0.06326127
247	0xbc3951dd	-0.011311022
248	0x3c08f0b4	0.008358169
249	0xbdd690c6	-0.10476832
250	0xbe07e58c	-0.13271159
251	0xbcb2896f	-0.02179405
252	0xbda63627	-0.081157975
253	0xbd6a5d80	-0.057218075
254	0xbd4caa13	-0.049966883
255	0x3d6e6f91	0.058211867

model.trunk.stages.3.blocks.0.token_mixer.proj.lora_B.default.weight f4 [512, 16]
0	0x3d0c698d	0.03428035
1	0xbc554891	-0.013017789
2	0x3c8cf2d6	0.017205637
3	0xbb2eea46	-0.002668993
4	0x3d22c88b	0.039742034
5	0xbd2eb408	-0.04265216
6	0x3c818b6f	0.015813557
7	0x3bc0602e	0.0058708405
8	0xbcd4a9ae	-0.025959816
9	0x3cdf5a09	0.027264612
10	0xbcfe2e39	-0.0310279
11	0xbc053106	-0.008129364
12	0x3cf8aea6	0.030356716
13	0x3ce969a6	0.02849276
14	0x3c86967a	0.016429175
15	0xbc60a88c	-0.01371206
16	0x3cf54616	0.029940646
17	0xbc01395e	-0.007887213
18	0x3d108aaa	0.03528849
19	0xbc93172f	-0.01795539
20	0xbd8c7315	-0.06857888
21	0xbc494171	-0.012283669
22	0x3cb125cb	0.021624466
23	0x3d463fea	0.048400797
24	0x3cddc3f0	0.02707097
25	0x3d0f5c3e	0.03500008
26	0x3c81820b	0.01580908
27	0x3d2c2a74	0.042032674
28	0x3d03a132	0.03213615
29	0xbd493002	-0.04911805
30	0x3d688f2c	0.056777164
31	0x3ae3ba76	0.0017374295
32	0xba5b3133	-0.0008361518
33	0x3c88f197	0.016716762
34	0x3aee9f76	0.0018205482
35	0xbade6e80	-0.0016970187
36	0xbd2819bd	-0.04104017
37	0xbccfdf6b	-0.025375089
38	0xbd13063a	-0.03589461
39	0x3b4975aa	0.00307403
40	0x3cca6cfa	0.024710167
41	0xbcdb8aa4	-0.026799507
42	0x3d733014	0.059372023
43	0xbd173d57	-0.036923733
44	0x3cd1ee4b	0.025626322
45	0xbd124045	-0.035705823
46	0x3cf14823	0.029453343
47	0xbcffc8b9	-0.031223642
48	0x3ca885f4	0.020571686
49	0x3ca22a65	0.019795606
50	0x3b7f1493	0.0038922175
51	0xbc6ac774	-0.01432978
52	0xba9f3aa5	-0.0012148215
53	0x3d13d134	0.036088184
54	0xbc015a5b	-0.007895078
55	0x3c6dc108	0.014511354
56	0x38e69ad5	0.00010996094
57	0xbb8d9925	-0.0043212348
58	0xbbfaa375	-0.00764888
59	0x3cdef204	0.027215011
60	0xbc0a3910	-0.008436456
61	0xbc088925	-0.008333479
62	0x3cdbebc0	0.026845813
63	0x3d11831d	0.03552543
64	0xbcb32920	-0.021870196
65	0x3c431acf	0.011908247
66	0x3c02b244	0.007977072
67	0x3c90cf16	0.017676871
68	0x3c381afc	0.011236902
69	0xbc541833	-0.012945223
70	0xbb14a35b	-0.0022680375
71	0xbc0d980e	-0.00864221
72	0x3d15d83f	0.03658318
73	0x3c4abae1	0.012373657
74	0x3a213743	0.0006149897
75	0xbc703045	-0.014659946
76	0xbc87a6e0	-0.016559064
77	0x3b8c3e1d	0.0042798654
78	0xbc36368e	-0.011121405
79	0xbc62682b	-0.013818781
80	0x3c891e6a	0.016738135
81	0x3c3134f7	0.01081585
82	0xbcc80878	-0.0244181
83	0x3d324b82	0.04352904
84	0x3d5a8acd	0.053355027
85	0x3c02e4f3	0.007989156
86	0xbc838a93	-0.016057288
87	0xbc401bfd	-0.011725423
88	0xbd1a18cc	-0.037621304
89	0x3c8999ca	0.016796965
90	0xbd45eae5	-0.048319716
91	0xbc8a11b8	-0.016854152
92	0xbc5685c9	-0.01309342
93	0x3d2bff1d	0.04199134
94	0xbb190aee	-0.0023352462
95	0x3c39afbd	0.011333403
96	0x3d80a9b4	0.06282368
97	0x3c122fd4	0.008922536
98	0xbb42b16d	-0.0029707805
99	0xbd20e2f9	-0.039278958
100	0x3c9ddf6d	0.019271577
101	0xbbf91daf	-0.0076024155
102	0x3ca7420f	0.020417241
103	0x3c3fdb18	0.011709951
104	0xbc8882ca	-0.016663928
105	0xbc315fc2	-0.010826053
106	0xbc030c37	-0.007998518
107	0x3bb3c9ed	0.005486718
108	0xbb3dda7c	-0.0028969338
109	0x3ce87360	0.028375328
110	0xbc404bd6	-0.011736831
111	0x3d45f0fd	0.048325527
112	0x3c6ce394	0.014458556
113	0x3d6bc654	0.057562187
114	0xbb7211d4	-0.0036936896
115	0xbbb1d23a	-0.0054266723
116	0x3c1f7409	0.009732255
117	0x3ce631fb	0.028100004
118	0x3cba9bf4	0.022779442
119	0x3d0fd071	0.035110895
120	0x3a8e0c37	0.001083738
121	0xbbcae599	-0.006191921
122	0x3d01022e	0.03149622
123	0x3cbd46fc	0.023105137
124	0x3b9c82c2	0.0047763297
125	0x3bf7aef8	0.0075586997
126	0x3cc6e301	0.024278166
127	0xbcb72eb2	-0.022361133
128	0x3c26fccf	0.01019211
129	0x3d166568	0.036717802
130	0x3d3d3e8a	0.04620222
131	0xbc706c51	-0.014674262
132	0x3a9e695b	0.0012085842
133	0x3c80806d	0.015686238
134	0xbb9db06d	-0.0048122914
135	0x3d047b1f	0.03234398
136	0x3c15b314	0.009136934
137	0x3bf0d247	0.0073492858
138	0xbce0f002	-0.027458195
139	0xba97874c	-0.0011560707
140	0xbc18018e	-0.009277714
141	0x3ce2fbef	0.027708022
142	0x3bf51fca	0.007480596
143	0xbc0f229f	-0.008736282
144	0xbcf0c4e0	-0.029390752
145	0xbd1369ec	-0.035989687
146	0x3d615dda	0.055021144
147	0xbc739044	-0.014865939
148	0x3c8f7af6	0.017514687
149	0x3d12f860	0.0358814
150	0x3c4234c9	0.011853405
151	0x3c09a620	0.008401424
152	0xbbd8968e	-0.0066097444
153	0x3b73d1ad	0.0037203834
154	0x3b8e6558	0.004345577
155	0x3d0b668d	0.034033347
156	0x3b225c8c	0.00247744
157	0x3c1ee0a1	0.00969711
158	0xbcc35bc7	-0.023847474
159	0x3a9c32ce	0.0011916996
160	0xbcc25364	-0.023721404
161	0x3c4c3d57	0.012465796
162	0xbd138db1	-0.0360238
163	0xbbf682e6	-0.0075229285
164	0xbc890e9c	-0.0167306
165	0x3d91f69b	0.071271144
166	0xbc185546	-0.0092976745
167	0x3c56bcfe	0.013106583
168	0xbd153315	-0.03642567
169	0xbcf10298	-0.029420182
170	0x3c81232d	0.015763843
171	0x3cf5e93e	0.030018445
172	0xbd707cd7	-0.058712807
173	0xba5c757d	-0.0008409841
174	0xba41b94f	-0.0007389979
175	0x3cec3097	0.028831763
176	0x3c36b6e8	0.011152007
177	0x3d18488d	0.037178565
178	0xbb523c6f	-0.0032079478
179	0xbd8fbe6a	-0.070187405
180	0xbcf1f16e	-0.029534068
181	0xbc9e1f36	-0.019301992
182	0xbc2f45d2	-0.010697799
183	0x3d5ac012	0.05340583
184	0x3ba4b06e	0.005025915
185	0x3cb0200c	0.021499656
186	0x3cb10574	0.021609046
187	0x3c5f5dd6	0.013633212
188	0x3d01bf32	0.03167648
189	0xbce4e8bd	-0.02794301
190	0xbce43f6c	-0.027862273
191	0x3a352b01	0.000691101
192	0x3d1387c1	0.036018137
193	0x3d1d21a2	0.038362153
194	0x3c80fbc4	0.015745051
195	0xbcb1a3f3	-0.021684622
196	0xbc6c9132	-0.014438914
197	0x3d811670	0.06303108
198	0x3d3a9186	0.04554894
199	0x3ca4b78f	0.020107059
200	0xbcd3b4d2	-0.025843058
201	0x3d2e4f2f	0.042555984
202	0xbd234713	-0.039862704
203	0x3d5c5289	0.05378965
204	0xbca0b0f6	-0.019615632
205	0x3befbceb	0.007316222
206	0xbc255a67	-0.010092354
207	0xbceade76	-0.02867053
208	0x3aae8451	0.001331458
209	0x3d67eecb	0.056624215
210	0xbc4f6498	-0.012658261
211	0xbce7902c	-0.028266989
212	0xbb3b44ff	-0.002857506
213	0xba484175	-0.00076391484
214	0xbd9f0917	-0.077654056
215	0x3d1180f7	0.03552338
216	0x3c44de8d	0.012015951
217	0xbc6bee4c	-0.014400076
218	0x3d0818c0	0.03322673
219	0x3c633961	0.013868661
220	0xbc16e3d8	-0.009209596
221	0xbc87f272	-0.0165951
222	0x3d14401f	0.036193963
223	0xba8c6abe	-0.0010712964
224	0x3d3fac26	0.046795033
225	0xbd453e31	-0.048155013
226	0xbd22f268	-0.039781958
227	0x3da1db06	0.079031035
228	0xbd2a3f72	-0.041564412
229	0xbda7569b	-0.081708156
230	0xbaba45c4	-0.0014211466
231	0x3c7b6e61	0.015346141
232	0x3a85bae5	0.0010202794
233	0xbcce3e69	-0.025176244
234	0x3c1983e9	0.009369829
235	0xbd08b058	-0.0333713
236	0x3d23d750	0.04000026
237	0xbd04c412	-0.03241355
238	0xbc3877da	-0.011259044
239	0x3d237315	0.039904673
240	0xbc98fce8	-0.018675283
241	0x3cafb395	0.021447936
242	0x3c0c6da9	0.008571067
243	0xbb919957	-0.0044433284
244	0xbc15fdc2	-0.009154739
245	0x3befa6b0	0.007313572
246	0xbd04b396	-0.03239783
247	0x3c31ce6e	0.010852439
248	0x3d5019e5	0.050805945
249	0x3cb76469	0.022386746
250	0x3d36af4b	0.044600766
251	0xbabdc844	-0.001447924
252	0xbb6f2838	-0.0036492478
253	0xbd50d188	-0.050981075
254	0x3d94998d	0.0725585
255	0xbd6b8cbf	-0.057507273

model.trunk.stages.3.blocks.1.token_mixer.qkv.lora_A.default.weight f4 [16, 512]
0	0x3d0f8bc2	0.035045393
1	0xbd59099f	-0.05298769
2	0x3bd883ad	0.006607494
3	0x3cde9693	0.027171409
4	0x3c9434c7	0.018091572
5	0xbd37db82	-0.044887073
6	0x3cbd4456	0.023103874
7	0x3be86848	0.0070925094
8	0x3c31a40d	0.010842335
9	0x3d09ebfa	0.03367231
10	0xbcba50b3	-0.022743559
11	0x3b9e4c8f	0.004830904
12	0x3d4aff50	0.04955989
13	0x3b83818b	0.0040132455
14	0xbd88f4e7	-0.066873364
15	0x3d268372	0.0406527
16	0x3d528f75	0.051406343
17	0x3ba0441c	0.004890932
18	0xbdafcc95	-0.08583943
19	0x3b26b3ea	0.0025436827
20	0xbd00c3f5	-0.03143688
21	0x3d84ca1e	0.06483863
22	0xbdb1649e	-0.08661769
23	0xbab468c6	-0.0013764135
24	0xbd3d5de7	-0.04623213
25	0xbc8daf99	-0.017295646
26	0x3c415056	0.011798939
27	0x3d85021d	0.06494544
28	0x3d6ba918	0.057534307
29	0x3c8223b3	0.015886163
30	0x3d86090f	0.065446965
31	0xbd694686	-0.056952022
32	0x3c0b4b72	0.008501874
33	0x3d734796	0.05939444
34	0x3d323747	0.043509748
35	0x3d77db93	0.060512137
36	0xbd824938	-0.063616216
37	0xbc85df7a	-0.016341913
38	0xbb281516	-0.0025647334
39	0x3c9ef71c	0.01940494
40	0x3a275e9c	0.00063846423
41	0xbc39eaa5	-0.0113474475
42	0xbc4a9b58	-0.012366138
43	0x3d593202	0.053026207
44	0x3ce3dc4f	0.027815012
45	0xbd3c1d70	-0.04592651
46	0x3c5eacc4	0.013590995
47	0xbd671492	-0.0564161
48	0xbd80b060	-0.06283641
49	0xbcb315a2	-0.021860901
50	0x3d881c12	0.06645979
51	0x3ce7fd06	0.028318893
52	0x3b86bd2a	0.0041119056
53	0x3d5421e4	0.051790133
54	0xbba89405	-0.0051445984
55	0xbc7e2ce5	-0.015513633
56	0x3d7103ec	0.05884163
57	0xbc57c0a8	-0.013168491
58	0xbbeeb636	-0.007284905
59	0xbccc4fce	-0.024940398
60	0xbc4f3202	-0.0126462
61	0x3c7bf4fb	0.015378232
62	0x3c39e1f9	0.01134538
63	0xbd2e306f	-0.04252666
64	0x3d3d0623	0.04614843
65	0x3d1dffb8	0.03857395
66	0x3d4d933f	0.050189253
67	0xb9be8e0e	-0.00036345463
68	0xbc40900b	-0.0117530925
69	0x3dac4279	0.08411116
70	0x3cddc8b1	0.027073236
71	0xbb14af9c	-0.002268768
72	0x3c6c74bd	0.014432129
73	0xbd7a8ea0	-0.061171174
74	0x3c3f2a03	0.011667731
75	0xbd38836f	-0.04504722
76	0xbc9d4aa8	-0.019200638
77	0xbb10cb83	-0.0022093959
78	0xbce8a4da	-0.02839892
79	0xbb0a59ae	-0.0021110582
80	0x3d8ae851	0.06782592
81	0xbd35d54a	-0.04439286
82	0x3cab4cf8	0.020910725
83	0xbc3123cd	-0.010811758
84	0xbb3e15c4	-0.0029004673
85	0xbd4572a9	-0.04820505
86	0xbcbf4fbf	-0.023353456
87	0x3cf63304	0.030053623
88	0xbd0b921d	-0.03407489
89	0xbd89cbdc	-0.06728336
90	0x3cf86e4d	0.030326033
91	0xbd05aa1c	-0.032632932
92	0xbd0372de	-0.032091968
93	0xbcdcc0b7	-0.026947362
94	0xbb87c813	-0.0041437238
95	0x3c187558	0.009305321
96	0xbb7d50de	-0.0038652937
97	0x3d554901	0.052071575
98	0x3d13a100	0.036042213
99	0x3d2e9d6e	0.042630605
100	0x3c50a7fe	0.012735365
101	0x3d396068	0.045257956
102	0xbd92282c	-0.071365684
103	0xbc203659	-0.0097785825
104	0xbd46c12e	-0.048524074
105	0x3d30e5c7	0.043187883
106	0xbc172fa1	-0.009227664
107	0x3d2f1219	0.04274187
108	0xbd7ddc0c	-0.06197743
109	0xbca9e066	-0.020736884
110	0x3c3f41f5	0.01167344
111	0xbcf4c31c	-0.029878192
112	0xbbe2c136	-0.006920005
113	0xbc0a4314	-0.008438844
114	0x3abeb489	0.0014549653
115	0x3cdade5d	0.02671736
116	0xbc439d11	-0.011939303
117	0x3da6fe46	0.081539676
118	0xbd82f133	-0.06393661
119	0xbd4a0ac0	-0.04932666
120	0xbca7d121	-0.020485463
121	0xbabbe27b	-0.0014334464
122	0x3b09a75c	0.0021004295
123	0x3d2db22d	0.04240625
124	0xbcab7855	-0.020931402
125	0x3cf13d1d	0.029448086
126	0x3d3d8ead	0.046278644
127	0x3d212802	0.039344795
128	0xbdb33bd5	-0.087516464
129	0x3dde4c66	0.108544156
130	0xbce37186	-0.027764093
131	0xbd619c92	-0.055080958
132	0x3d1b5731	0.03792495
133	0xbd8ddc87	-0.06926828
134	0x3df68cda	0.12038584
135	0xbb1577cc	-0.0022807
136	0x3be4ef4f	0.0069865356
137	0xbcc6a408	-0.024248138
138	0xbd222581	-0.039586548
139	0x3d066115	0.03280743
140	0xbd089e8e	-0.033354335
141	0xbd3e8ac0	-0.04651904
142	0xbbec2a25	-0.0072071725
143	0xbe16222c	-0.14661473
144	0x3d1dbbad	0.03850906
145	0xbdc6cc3d	-0.09706924
146	0x3ddce7a3	0.10786369
147	0x3d78fbd6	0.060787044
148	0x3ca0be3d	0.019621963
149	0x3dbce466	0.09223251
150	0x3cd89a8d	0.026440883
151	0x3cea47f7	0.028598769
152	0xbd150a1b	-0.03638659
153	0xbc818790	-0.015811712
154	0xbd3ca47c	-0.046055302
155	0x3d874376	0.06604664
156	0xbd814e1a	-0.06313725
157	0xbc0c59d7	-0.008566341
158	0xbbee85d6	-0.007279138
159	0xbd7405db	-0.059575897
160	0xbc9625f0	-0.018328637
161	0xbda9aead	-0.0828527
162	0xbd200c6f	-0.039074358
163	0xbb0cbfbf	-0.0021476594
164	0xbcf0d62f	-0.029399006
165	0xbd0c3a9e	-0.03423559
166	0x3c11421c	0.008865859
167	0xbd9a20c9	-0.075257845
168	0x3d96a233	0.07355156
169	0xbdd4a5d8	-0.10383195
170	0x3d56ed48	0.052472383
171	0x3d9b5da3	0.07586219
172	0xbcc73bd7	-0.024320526
173	0xbd8e9eb5	-0.06963865
174	0xbb344f53	-0.0027513101
175	0xbd43a68f	-0.047766265
176	0xbc0a887f	-0.008455395
177	0xbc9e4178	-0.019318327
178	0x3c5cc3c8	0.013474412
179	0x3d7fa42e	0.062412433
180	0xbd1d1246	-0.038347505
181	0xbd03a59f	-0.03214037
182	0xbd0a0f47	-0.033705976
183	0x3ac03a4b	0.001466581
184	0x3c16d776	0.009206643
185	0xbd95c0c6	-0.07312159
186	0xbd036a6a	-0.032083906
187	0xbd59f6b2	-0.053213783
188	0x3c35bb7d	0.011092064
189	0x3da35f9b	0.0797722
190	0x3cff0260	0.031129062
191	0xbc8a2473	-0.016863083
192	0x3d393ed5	0.045225937
193	0x3d0e4635	0.034734923
194	0x3d58e530	0.052952945
195	0x3c17a231	0.009254978
196	0x3d9a6d25	0.07540349
197	0xbc5e70b2	-0.013576673
198	0xbdf206ec	-0.118177265
199	0x3beddfca	0.0072593438
200	0xbc80f229	-0.015740471
201	0x3ca70720	0.02038914
202	0x3d244a3c	0.040109858
203	0xbc438b0a	-0.011935005
204	0x3d1f3cc6	0.038876317
205	0xbc273867	-0.010206318
206	0xbacfd985	-0.0015857673
207	0x3a1b3e4d	0.00059220643
208	0xbc8fe624	-0.017565794
209	0x3d15b165	0.03654613
210	0x3ab3136d	0.0013662406
211	0x3bac6a5e	0.0052617034
212	0x3d717b73	0.05895562
213	0xbd1e4437	-0.038639273
214	0xbd37de94	-0.04489
215	0xbdc16771	-0.09443558
216	0x3cdaeab0	0.026723236
217	0xbdafa8a9	-0.08577091
218	0xbc91045f	-0.01770228
219	0xbce1011d	-0.027466351
220	0xbd272f7d	-0.040816773
221	0xbcdb5c78	-0.026777491
222	0xbd2789b8	-0.040902823
223	0xbd27d6f2	-0.040976472
224	0x3d1b3cd5	0.03789981
225	0x3c3ed6eb	0.01164792
226	0x3cdc65b7	0.02690397
227	0x3d52f60d	0.051504184
228	0x3b8017c7	0.0039090845
229	0x3bcd06c0	0.006256908
230	0x3c4c040f	0.0124521395
231	0xbb8ca1a1	-0.0042917286
232	0x3c59445e	0.013260929
233	0xbc18e631	-0.009332226
234	0x3ce5a095	0.028030673
235	0xbd0f0147	-0.034913328
236	0x3d6c5a0a	0.057703055
237	0x3ad3f6a9	0.0016171533
238	0x3d12f243	0.03587557
239	0xbd1c2732	-0.038123317
240	0x3c4a9dcc	0.012366723
241	0x3de085dc	0.10963032
242	0xbde038a9	-0.10948307
243	0xbc6d9897	-0.014501712
244	0x3cf2f62e	0.029658403
245	0x3c44ff51	0.012023763
246	0xbd429b18	-0.04751119
247	0x3de3a7c4	0.11115983
248	0x3c0f2b43	0.008738342
249	0xbd6f29f4	-0.05838962
250	0xbd841e59	-0.06451101
251	0xbb9eedad	-0.0048501105
252	0xbb921c53	-0.004458943
253	0xbd7c96e1	-0.061667327
254	0xbd73a34c	-0.059481904
255	0x3c2ac04c	0.010421824
